FIT3081 - Image processing/Assignment2/weights.npz (npz, 837146 bytes, 4 tensors)

wji f8 [100, 1024]
000000 c8 e3 d6 2b f3 00 b1 bf 7b d7 0b 19 24 52 ce 3f
       -0.0664207441358392 0.23688174460374598
000010 cd 79 6b c5 79 ac df bf dd ad e7 8c dd a9 c8 bf
       -0.4949020793846131 -0.19268388157011787
000020 5c 66 3d ff cd 01 d6 bf c8 09 8e b8 e9 6e d9 bf
       -0.34386014867559367 -0.3973945905965164
000030 5a cb 9f e8 19 6c d3 bf fd 70 d9 3f 8b 17 c3 bf
       -0.3034729739876433 -0.1491560041203072
000040 9f 6b ce b4 ee 0d bb bf 20 3e ad d0 d0 9e a2 3f
       -0.10568134226052316 0.03636791751216273
000050 d6 c7 29 f9 62 85 b1 bf b6 7d cc d6 69 4a c9 3f
       -0.06844156821333 0.19758341778013538
000060 b5 2d 70 d3 7c 31 d1 bf d9 cd d9 c2 d7 eb d9 3f
       -0.268645483477225 0.405019703182203
000070 ef e3 b5 d2 83 86 dc bf 83 a4 2b bd 6f 66 ca 3f
       -0.44571014001081627 0.2062511132892589
000080 a4 cf 61 ff 6f b9 af bf 2f 6c b6 a0 81 c6 b1 3f
       -0.06196165077645269 0.06943521665236639
000090 74 30 d3 5b 8e d3 d7 bf c0 61 1c fd f5 21 d4 bf
       -0.3722873589256388 -0.3145728084359938
0000a0 77 52 9c b6 d8 ca d1 3f a0 92 20 42 1b 7a dd 3f
       0.2780057700449911 0.46057778794992466
0000b0 4f c3 bc 11 b1 6d c9 bf 97 c0 ea c6 3c 03 c9 3f
       -0.19866002431947513 0.1954112979196949
0000c0 d2 c5 4a f8 94 a1 d7 3f ef e9 db 42 a3 c2 d9 3f
       0.36923717734597716 0.40250474480822523
0000d0 c1 26 23 c5 3b 0d da bf 05 f9 96 69 b9 fe dc bf
       -0.4070577073258442 -0.4530471354627397
0000e0 59 d9 4c a3 18 a0 d4 bf e8 02 99 f5 d8 d3 d7 3f
       -0.3222714991310532 0.3723051451125188
0000f0 85 1a ce 05 e3 4d d9 bf 36 7e 04 9a 14 e6 b1 bf
       -0.3953788334551194 -0.069916999437276
000100 56 42 cd 86 af 0b de 3f 4b 13 a6 91 d7 1c b3 3f
       0.4694632355140461 0.0746588450038647
000110 78 e3 8b 81 ac e0 ca 3f 78 4f d0 70 f0 4b c5 bf
       0.2099815018225646 -0.16637998112184582
000120 82 86 50 9b 66 f3 c9 3f 0c 83 e6 89 b9 a3 d5 3f
       0.2027405031558836 0.3381179663356739
000130 1c 11 fc 70 3c 7f de bf 67 59 51 62 2d 93 d0 3f
       -0.47651587518363825 0.25898298837036865
000140 95 fd 35 2e 41 64 e0 3f c3 57 42 82 fc 17 d1 3f
       0.5122381117397931 0.26708901138897206
000150 c9 18 33 55 4b 23 c5 bf fc 0a 78 3f fe 18 d6 3f
       -0.1651395956052453 0.34527546117912755
000160 d2 31 a4 ca 77 38 d5 bf 56 14 e8 8e 36 a6 76 3f
       -0.33157152928540967 0.0055296069317637055
000170 0b 21 ff 80 79 72 dd 3f f8 a7 ec 32 ce 6b c2 bf
       0.460111976598015 -0.14391496168656182
000180 bd f7 1b bf 12 a0 ca bf f3 9d 0a 64 11 a9 d8 bf
       -0.2080100472593908 -0.38531908769297657
000190 1b 5d 21 db 26 d3 de bf 5d 4c 56 83 aa 4b c0 3f
       -0.4816376819557761 0.12730914509720295
0001a0 3d 4d 1a 79 c9 00 d7 bf 26 2e da 06 25 f2 d2 bf
       -0.359423034920116 -0.2960293356815974
0001b0 5b 5a ff 41 38 75 a8 bf 4f 4a 84 07 30 f8 de bf
       -0.04776931577332696 -0.4838981698423241
0001c0 30 46 54 87 e0 95 93 3f 2f 15 c0 74 c6 c1 d5 bf
       0.019126423129881498 -0.33995210076712373
0001d0 42 d9 2e 2f 72 44 bd 3f 76 89 66 07 89 16 c7 3f
       0.11432565357140326 0.1803752218375611
0001e0 96 18 56 ad 44 3e d9 bf d6 6d c5 a4 e3 76 b3 bf
       -0.3944255535828999 -0.07603285572752524
0001f0 ca 10 79 ee 1b b2 ce 3f 7e 15 36 1e 23 ac b3 bf
       0.23981045860467126 -0.07684535491542552
000200 57 77 e8 c7 9b 63 dd bf 07 4e 34 b5 b4 f9 8d 3f
       -0.4592046215274101 0.014636432437817438
000210 75 2d bc ca 68 cc c3 3f 52 b1 37 62 1a ff 8d bf
       0.15467557810948632 -0.014646726724969614
000220 e3 3f 74 db 28 d5 d9 3f 30 0b 4a 0a ae b5 ac 3f
       0.40363522940697133 0.056073607212076104
000230 d2 1f f5 7a d4 a4 d7 3f 61 45 f2 91 1c a1 d8 bf
       0.36943542487688064 -0.38483347179961497
000240 6e bd 5e 5a 66 4a d9 bf e8 44 d0 c4 ac c1 cf 3f
       -0.39516600442126204 0.24809798822437945
000250 75 bb d4 e3 51 9b be bf 6e 88 f9 b9 62 eb d7 bf
       -0.11955749332694927 -0.37374179994197376
000260 57 e6 38 de ff 27 d9 3f 98 c5 32 d3 a7 8a c8 bf
       0.3930663747920326 -0.19173143207949006
000270 4b cd 72 2e 33 3d c6 3f 0e a7 87 74 94 36 c5 3f
       0.1737426735686348 0.1657281464570634
000280 07 7e 38 d2 46 87 d4 3f 99 9f 1a ed 0f 21 b4 3f
       0.32075663117754555 0.07862948931381054
000290 61 d2 54 fc fd a9 c8 3f df 93 45 72 4e 1d c8 bf
       0.1926877481543157 -0.18839436130215767
0002a0 a4 53 0a 0f 4a f6 ca bf e4 34 c3 fe ee 3a d8 3f
       -0.21064115270988026 0.3785970199504176
0002b0 da 2f dc 9f ea ce bd bf 77 fe 91 f2 81 c9 d9 3f
       -0.11643854525408362 0.40292404831414025
0002c0 d7 32 ed d2 fa 18 c2 3f 1d 08 e2 de 8d f6 9c 3f
       0.14138732241771976 0.028284279564566462
0002d0 81 65 f9 3a 35 4e e0 bf d8 2d d0 67 46 33 d6 3f
       -0.5095468665924018 0.34687957895286337
0002e0 3d 88 1c 69 dd 34 a0 bf 86 58 63 08 5b 41 b4 3f
       -0.031653327065456406 0.07912224726473668
0002f0 26 55 4d 4e cd f4 b5 bf ad 8e 74 10 cb 25 d1 bf
       -0.08576663171455276 -0.2679317150780019
000300 14 96 44 11 64 b1 d8 3f 82 83 89 c0 11 66 a8 3f
       0.3858270805961592 0.04765372729594387
000310 82 c3 20 35 ed 50 e0 bf 17 88 5d 37 b7 ab b4 3f
       -0.5098787343650744 0.08074517347043329
000320 9a 3f 2a 0a d5 1a c9 bf 6b 34 94 41 90 07 8a bf
       -0.19613135334338666 -0.012709738732633554
000330 27 50 eb c0 36 e9 d2 3f 78 a9 2a 0b 58 c0 c8 bf
       0.29548424567951986 -0.19336987061735633
000340 01 9b 4f c4 cd ff d7 3f 44 da c5 f8 03 70 b2 3f
       0.3749880234812935 0.07202172111087984
000350 5f 2e 13 6c 09 0e e2 bf 8b 63 05 40 4e d8 da 3f
       -0.5642134772146611 0.4194522500234192
000360 0c 6d 33 1e de 1b c9 3f 25 9e 68 2e f0 07 e0 3f
       0.19616295313503718 0.5009690195483399
000370 1b 24 b0 8d 21 ba d5 bf 2e f3 5b 01 5e 8f d9 bf
       -0.33948553883289073 -0.39937543995602
000380 75 f9 21 c3 9e 8f da 3f 29 94 7e ac e6 28 c7 3f
       0.4150158792107484 0.1809357015855835
000390 9f 64 5f 19 cd 17 de bf 9b 18 73 d6 b9 00 d0 3f
       -0.4702027080325681 0.250044307158882
0003a0 43 f8 d3 5f 88 12 cc 3f ac 8f 20 46 7b 2d e0 3f
       0.21931557349302197 0.5055519456550335
0003b0 02 e6 58 7e c0 26 d1 3f 62 11 7c a4 14 a9 d4 bf
       0.26799022997474264 -0.32281986296609066
0003c0 9f 80 56 af aa f8 dc bf d5 20 da 79 a6 01 e0 bf
       -0.4526774132045918 -0.5002014522479167
0003d0 6e 76 00 21 6d c0 e0 bf b8 7b 2a 03 79 b9 d4 bf
       -0.5234895367209 -0.32382035550284227
0003e0 d0 43 1e 26 7c 8e d2 3f 33 a6 45 6e 05 3a a3 3f
       0.28994659159166947 0.037552041731782636
0003f0 67 e6 5b d1 4b 70 aa 3f 85 c0 f7 1c ba 9c d6 3f
       0.051638001734272625 0.3533158572090616
000400 9f dd 74 83 ae 69 d9 bf 9f 6b 38 b4 09 93 d0 bf
       -0.3970752986674259 -0.25897448157928155
000410 9d 8c 7d 93 e5 d0 aa 3f 4a 21 ea 35 8f 1e df 3f
       0.05237500596447229 0.4862401987561681
000420 15 d6 06 20 ac ac 9e 3f 66 4b 9f 69 96 a0 e0 bf
       0.029955567793612376 -0.5196029723104914
000430 06 c9 c7 a7 53 b2 d2 3f f4 df bf 18 2e b1 d3 bf
       0.2921342028122499 -0.307689212960667
000440 1d 65 c9 49 e5 14 d6 3f c6 78 a5 0a 94 ab b8 bf
       0.34502536969883285 -0.0963680768959164
000450 6f 59 62 d2 dc f1 d8 3f 5e c0 c6 c4 f4 85 d2 3f
       0.38976212067918586 0.2894260331768289
000460 fe be b9 50 c6 50 bc 3f d5 b2 b9 e3 db 37 d7 bf
       0.11060752364005208 -0.3627843593483651
000470 52 58 82 20 a7 ea db bf ea 79 25 8e c7 86 d6 bf
       -0.4361970727417247 -0.3519762886188845
000480 e4 40 80 a6 4c 38 da bf 04 24 01 b3 5c 65 d5 bf
       -0.40968624362814254 -0.334311652001418
000490 0c 28 77 c7 69 a6 cc bf 65 3a ec 6e 7d 01 d0 3f
       -0.2238285278274933 0.25009094078351374
0004a0 85 7e 92 8f 26 b2 bd 3f 1d 0b 99 18 ca 19 dc bf
       0.11599961285764422 -0.439074062367739
0004b0 5d 6e ec e2 39 01 d9 bf 00 fb 32 79 33 da e0 3f
       -0.390699836354292 0.5266358725710631
0004c0 a2 fa d3 41 e4 dc be 3f 6a b4 5e ba 3f 38 d2 bf
       0.12055803877954444 -0.2846831626910161
0004d0 6b 17 70 8d ea ff cf bf d5 c0 52 0c 35 09 cd 3f
       -0.2499974432577646 0.22684348203393392
0004e0 88 ad ae a3 73 e3 d5 bf be 66 21 97 4e b9 b1 3f
       -0.3420075510464007 0.06923381032666051
0004f0 a6 45 9c 0e 05 2e dc 3f de c4 e1 ce aa 75 d7 3f
       0.440308822887426 0.3665568371134905
000500 27 4f 30 c0 02 e4 d0 bf 36 72 e4 dc f9 c7 45 bf
       -0.26391667145184033 -0.0006647081407070213
000510 f4 77 13 2b 61 ee bf 3f 9d 79 d5 d9 fe da d4 3f
       0.12473113347684245 0.3258664252552082
000520 81 bc bd 5c ac b3 d8 bf 6c c5 56 57 02 74 de bf
       -0.38596638733628913 -0.4758306363028939
000530 6e c3 ac 9e 96 78 d8 bf 52 02 ac cb 60 9c a1 3f
       -0.3823601293143416 0.034396195280355216
000540 62 fe 9c 2f 21 7c c9 3f 68 1c 41 3e 1b e3 c6 3f
       0.19910063576570552 0.17880573787462883
000550 0b f8 a1 a3 3e c8 b9 bf e3 46 d5 f6 29 27 e4 3f
       -0.10071174139918086 0.6297807522734867
000560 65 4c ee bd 33 01 c2 3f 64 9e 36 32 2e 5d ba bf
       0.14066168569533768 -0.10298432088767978
000570 2e df d0 37 8f b5 ab 3f 5e 1e 65 e4 26 20 d1 3f
       0.05411956364008429 0.2675873976154203
000580 96 99 10 35 f4 d1 c9 3f e2 27 df 17 b5 a5 c5 bf
       0.20171978560501874 -0.16911948838816132
000590 d0 d1 cf eb 22 63 d9 bf 02 00 87 3b 5f 26 b5 bf
       -0.3966758063172877 -0.08261676028541845
0005a0 97 b1 a7 fc fe 12 c9 3f 3e 70 9e c0 01 0f d3 bf
       0.19589221321747338 -0.29779094515265914
0005b0 f0 ea 79 0c 81 a7 cf 3f 28 6c 85 71 48 e7 d7 bf
       0.24729931935492955 -0.3734913929562844
0005c0 6d 7f fa 9f fc 60 c8 bf f7 ea 1e 4a a3 61 d8 3f
       -0.19045980273676424 0.3809593414149925
0005d0 06 cb c6 a5 63 7e cf bf 57 6f f0 6d af 07 c3 3f
       -0.2460445937591304 0.14867203586697528
0005e0 65 50 7c ed 57 b4 a2 3f d0 d1 35 cd 3c 40 db 3f
       0.03653216146463548 0.4257957462316684
0005f0 48 f1 01 84 d0 10 d2 bf ec 64 67 28 a8 de db bf
       -0.28227627650609977 -0.43546489663783805
000600 9c 6c ba 2d 2c 69 cd 3f 63 48 9c fb 56 93 d0 3f
       0.2297721122057269 0.25899290629707233
000610 d5 7a e1 7f 5a b6 da 3f b7 48 95 e7 de 05 da 3f
       0.4173799752078769 0.40660832038441747
000620 0f 6e c6 c4 76 fc dd bf 24 79 e4 5a a1 62 c9 bf
       -0.46853417602844244 -0.19832245767697387
000630 f8 f1 d6 3d 60 3a c7 3f ea e9 e5 02 3b f5 e0 3f
       0.18146899241936842 0.5299353653529668
000640 52 6c f1 4d 57 d2 e2 3f 39 53 88 32 52 e9 c4 3f
       0.5881763956380246 0.16337039439590642
000650 61 b0 96 11 c5 3c df 3f ba e5 4b 03 0d 94 d0 3f
       0.4880840942157701 0.25903630563660907
000660 4c e4 4d 59 b8 73 b0 bf b1 19 99 31 ed 32 8e bf
       -0.06426574878959562 -0.014745572162735284
000670 67 d4 24 dd 20 c3 b8 3f c6 cb 46 9b 35 80 8a bf
       0.09672742270488897 -0.01293985252491393
000680 54 43 cc 1a c0 ac d9 3f 0d cc 3e bf 60 2b d9 3f
       0.4011688481996789 0.3932725780134099
000690 4f ec 71 e9 a7 8f c0 bf 2f ae 1f ca ff fc dd 3f
       -0.1293840303295348 0.4685668443550836
0006a0 54 6d 45 d1 3a 49 d0 bf 4f ee 79 7b 53 1c d6 bf
       -0.25446958958283017 -0.3454788881133241
0006b0 6e ee e0 7a 43 03 d5 bf af 68 0a 76 43 bf b5 3f
       -0.32832419395319945 0.08494969970562026
0006c0 83 e9 14 58 1f 6f d8 bf 88 14 84 c6 8c ff df 3f
       -0.3817823753521667 0.49997252832719896
0006d0 d7 99 38 44 36 04 df 3f a4 a1 de 22 1b b5 dc bf
       0.48463207876411957 -0.4485538330577816
0006e0 ae 3d 64 c8 2a dc d3 bf e2 a0 06 6c 49 b6 c6 bf
       -0.3103129345845116 -0.1774379518003633
0006f0 d4 07 0e 60 61 87 d9 bf 6d 75 77 08 bd 24 d3 3f
       -0.39888796215393296 0.299117334621619
000700 89 b2 72 47 d3 39 ca bf f0 c2 93 ad 9f 88 d8 3f
       -0.20488968838380497 0.38333885146043567
000710 44 fd 03 57 6c 06 aa 3f de 0c d0 01 08 c4 d7 3f
       0.0508302551479525 0.37133979966183783
000720 5d 68 bd d7 99 bd db 3f cc fe 20 8d 1c 28 df 3f
       0.43344732349726717 0.48682321340673407
000730 ab f2 14 9a d7 97 b2 3f 90 fe 8f f9 e7 e5 c2 3f
       0.07262942802203536 0.14764117894809603
000740 06 67 7c b7 da ae db 3f 63 f8 76 6e 4f 26 bb bf
       0.4325472633223487 -0.10605331847088588
000750 d8 e7 6a 1f 1f e9 b5 3f 77 53 ea ac c4 5a c6 3f
       0.0855884029105306 0.17464502757197994
000760 40 5d ec b6 f8 f3 da bf 81 e6 ae b6 84 18 b5 3f
       -0.42114084113696393 0.08240537128485849
000770 fe 85 72 94 0b e0 b7 bf 57 70 ad be 9d b2 d1 3f
       -0.09326240896418622 0.2765268671116749
000780 44 96 03 8d 0c b1 c9 bf f3 d7 4a 28 ae 07 d5 3f
       -0.2007156075043658 0.3285937684516959
000790 3b 37 d5 37 08 f5 8d bf 5f af af 2c d1 da d7 bf
       -0.014627517894634337 -0.372730535162864
0007a0 a5 16 83 c1 5c 21 d3 3f 87 cc d8 07 7d dd c2 3f
       0.29891127488768127 0.14738428958080282
0007b0 57 7f 41 cb 54 ef d9 bf 5f 17 c5 6f 89 6c 41 3f
       -0.4052326188011554 0.0005317374303010872
0007c0 9e 5d 0d ff de d5 d1 3f de 6d f7 c8 89 87 db 3f
       0.2786786547416912 0.4301475966037439
0007d0 ab 85 df 58 07 d2 da bf b5 f9 73 5f 77 e4 e2 3f
       -0.4190691345121091 0.5903889526669476
0007e0 42 5d 22 92 08 39 b7 bf b6 d3 73 db ba 7f de 3f
       -0.09071401183824881 0.4765460150804829
0007f0 b1 e6 50 df 36 f9 b0 3f 43 1a 7c a6 cb 40 d3 3f
       0.06630270912219306 0.3008298040225876

wkj f8 [20, 100]
000000 bd 6a 46 86 a3 62 a8 bf 62 80 b3 02 d7 80 d9 bf
       -0.04762755407428674 -0.3984887625101746
000010 67 fb db 00 8b 84 d6 bf 34 4e f5 d6 d4 16 d5 3f
       -0.3518397816077851 0.32951851837171664
000020 5c 71 b7 91 06 f8 e6 bf ef bf 70 30 0d 85 ee 3f
       -0.717776569941218 0.9537416406728861
000030 c3 f6 b0 74 f2 35 f3 3f 90 4c 63 e2 43 9d e2 bf
       1.2006706770184088 -0.5816974088323992
000040 fe 40 b9 6b 93 4d e1 bf 29 55 2a b7 58 56 cf bf
       -0.5407197097756862 -0.2448225874292487
000050 09 e6 b6 1c d2 4c f0 bf d5 ff 1a 1b 7e 44 db 3f
       -1.0187550660760982 0.42605545660989935
000060 29 ea 93 ea 36 48 d6 bf 58 78 7a 87 8b 3c ca bf
       -0.34815762432086445 -0.20497268786579315
000070 fe 0d 96 11 90 88 dc bf 8d f6 48 ed 23 7b da bf
       -0.44583512990377006 -0.4137658898579069
000080 8a ec 00 0a 7e c9 d7 bf 3a a4 a8 ea b2 b9 dc bf
       -0.37167311646380397 -0.4488341609563268
000090 90 25 1e 46 0f 7b e7 bf 8e c9 dd 1b ff 13 92 3f
       -0.7337719315993798 0.01765440566618675
0000a0 45 77 bc 89 87 98 e0 bf f6 ba 5b d2 9f a4 f2 3f
       -0.5186193170700127 1.165191480362123
0000b0 e7 b0 e0 e2 91 f3 c1 3f 74 ed b0 1b c5 5e dd bf
       0.1402456624795214 -0.4589092989369512
0000c0 7d 20 03 cb f1 46 d6 bf cc 74 d9 d4 64 13 d0 3f
       -0.34808010888492175 0.25118370805814716
0000d0 8e a8 1c fc 7a a4 bc bf 76 00 74 f1 c6 c3 b5 3f
       -0.11188477187229948 0.08501857180454117
0000e0 8d 9f 8c fc 72 39 f1 bf 6b 62 77 fb 8b f8 dd bf
       -1.076525675316563 -0.4682950931287794
0000f0 f7 e3 07 23 d6 d5 b3 3f 4b dc 2c 33 9c e2 e5 3f
       0.07748163562054332 0.6839123725429855
000100 69 aa 19 e1 2b 51 c1 bf 7c 5b 28 fa 8a 68 e7 3f
       -0.1352896546480509 0.7315115819827578
000110 3e 16 27 3b 6c 33 b4 bf aa df 1e ce 17 08 cd 3f
       -0.07890964931638053 0.22680947842104376
000120 77 e7 20 d6 d3 6c df bf e3 9a 0a b8 31 64 fa 3f
       -0.49101730261792603 1.6494614781492423
000130 03 0f 7b 63 6a 70 de bf a8 d4 cb 46 c0 2c e2 bf
       -0.4756113025180044 -0.5679627783525989
000140 3d c9 cf 39 1a da e9 bf 28 65 4a 60 62 cc ea bf
       -0.8078738335737295 -0.8374492531467341
000150 42 63 c2 00 57 33 df bf d6 c6 92 36 56 f7 f2 bf
       -0.48750853609231026 -1.1853849536677692
000160 55 45 93 28 ee 29 e9 bf 60 41 a3 ab 38 56 da bf
       -0.7863684456334946 -0.4115125347280095
000170 a8 db 49 86 15 2a d5 bf 46 a3 e9 1a a3 11 e4 3f
       -0.3306936084185801 0.6271529698979996
000180 d9 90 ed 9b e6 b1 d2 3f 9d af a1 b6 d1 03 f1 bf
       0.2921082041487018 -1.063432420162804
000190 e8 9a 9c fc a4 df e2 bf d7 96 35 ac e8 97 d0 bf
       -0.589800351507475 -0.25927178208654084
0001a0 c8 68 1e 50 57 49 cd 3f c4 6a 80 0f bc 4b cb 3f
       0.2288006917195331 0.21324873692431912
0001b0 59 74 a8 54 17 b5 f4 bf 2c 88 f9 28 ca af dc bf
       -1.2942117030099978 -0.44822935105742334
0001c0 09 72 97 9f 0e d6 eb 3f 2c 14 b3 54 b0 b4 e8 bf
       0.8698800198577042 -0.772056737355006
0001d0 ed 4f ff e8 14 93 d6 3f 86 e4 2e 62 93 72 d9 3f
       0.35272715333598975 0.3976181467838348
0001e0 34 6c d8 6b a8 c3 dc bf c6 0c 7a 09 ca ed f0 bf
       -0.4494420102288956 -1.0580540056405865
0001f0 85 cb c6 7f 64 1c e1 3f f6 e4 8c 37 ee 1d c7 3f
       0.5347158904681782 0.18060090744419427
000200 7b 22 35 bb f0 c0 d6 bf 32 6e 82 0f 1b d8 ec 3f
       -0.3555261448096087 0.9013800909919552
000210 2e 8c a4 ac d7 90 d6 bf 94 d1 e3 69 f2 18 dd 3f
       -0.35259048328061027 0.4546476396638124
000220 87 d9 88 52 43 b4 b9 bf 44 76 08 4c 15 ed b2 3f
       -0.10040684475902682 0.07393010240817782
000230 7f f9 25 4c c7 8d d0 bf 58 5b 79 09 a5 b5 c0 bf
       -0.25865347324715765 -0.13054335558509922
000240 46 78 8a 8e cb fe b0 bf 96 12 5f 2f 86 a2 d7 bf
       -0.06638786535265337 -0.3692946875201327
000250 93 25 b4 fa bf 36 e7 3f e0 46 d1 d6 78 7d e7 3f
       0.7254333397442444 0.7340664096502358
000260 aa 1e f1 99 37 70 f3 bf 08 ed 76 46 03 87 db 3f
       -1.2148967755655726 0.43011552697471744
000270 6a 89 19 8f 48 ff ad 3f 62 17 c4 55 cc 69 dc bf
       0.058588283031684465 -0.4439574086721817
000280 77 5d 87 f0 77 0a f1 bf 08 ff e1 a1 fb 8a e7 3f
       -1.0650557895331454 0.7357156907819169
000290 59 a6 18 9c 1f ec d6 bf 90 d1 da ab fd c7 cd 3f
       -0.3581618332269492 0.2326657380232402
0002a0 50 7f 37 1f fc d4 e1 bf 65 e4 ec 9e 6e 71 e2 bf
       -0.5572491273596629 -0.5763466934214533
0002b0 a6 d6 58 74 32 d6 b9 3f 68 c2 d6 12 d1 08 b9 3f
       0.10092463818076655 0.09779078206953218
0002c0 95 38 21 28 76 79 e7 bf af 17 21 e3 81 16 ea bf
       -0.7335768493446887 -0.8152474819296368
0002d0 67 31 54 a5 57 2f af bf 0c a7 30 2e 77 29 f4 3f
       -0.060908068591831115 1.2601234249399935
0002e0 16 c3 c3 2d da f0 9a 3f ae 42 4f eb e7 64 de 3f
       0.026309403460746138 0.4749088094659254
0002f0 48 8e ed 8e 9e 47 e1 bf 43 e0 ed 2d 79 42 da bf
       -0.5399925986825531 -0.4103072117354751
000300 38 67 a4 c8 e0 9e e9 bf b8 29 3b b9 c2 6d c4 3f
       -0.800644294623658 0.1595996288727528
000310 75 c5 bd 1b 2f 84 f4 3f b3 56 7f 33 c0 d0 ec bf
       1.2822714885372453 -0.9004822736557884
000320 48 89 1e 7e 50 47 e8 3f dc 89 0f 43 11 4f cc bf
       0.7587053740756255 -0.221162946457368
000330 56 89 36 b5 c8 2f c8 bf 1b 8e 6f cf ea 1f ed bf
       -0.18895825241367942 -0.9101461459617356
000340 2e 7a 54 6e 33 7a d1 bf 4a f4 c0 eb bb fd ef bf
       -0.2730835511628439 -0.999723396736621
000350 97 1e 01 24 62 8c e1 bf 49 80 15 57 e7 23 f1 bf
       -0.5483866408548747 -1.0712655450552282
000360 3f e9 bc 61 5f 91 d8 3f 83 92 64 f3 c4 45 ba bf
       0.38387283844680903 -0.10262709562500487
000370 b6 ad 97 5e 07 c6 b4 3f 4a 6b e8 3a 74 73 c4 bf
       0.08114667949091978 -0.15977337719308543
000380 53 56 73 a3 fd ca db bf f2 1a ea 95 bd 93 d8 bf
       -0.43426457368818666 -0.38401736869893377
000390 bd 60 84 3a 66 03 b0 3f e1 b6 05 b8 b4 ad e1 3f
       0.0625518696655289 0.5524543375192615
0003a0 86 0f 4d bc 7f 84 d0 3f 6e 60 ba cc 5f 33 ec bf
       0.2580870951535349 -0.8812712668032086
0003b0 b7 0a 19 36 5f 82 95 3f 24 5c c3 70 bd 1c f6 3f
       0.021005141903752213 1.3820166020211753
0003c0 f2 b6 48 93 90 f8 e9 bf ae 2d 4c 52 cd ab e1 bf
       -0.8115923763886868 -0.552221928346105
0003d0 d8 70 f8 e8 13 2f ef bf 49 cb db 5f 2f 7d d1 3f
       -0.9744967985348252 0.2732656894797186
0003e0 46 e1 b0 84 8e 2d e2 3f e7 63 59 f2 bd c5 d1 3f
       0.5680611220950957 0.27769421259796306
0003f0 1d b0 43 2f 10 1e 92 bf 47 da ff 6d f2 72 be 3f
       -0.01769280708769837 0.11894145188839743
000400 1c b8 89 64 a1 e9 d3 bf 26 69 01 ff 5a 4c cf 3f
       -0.31113467043076226 0.24451768351975395
000410 19 43 9f 46 c1 9b dc 3f 57 2b 37 b4 8a 64 d5 3f
       0.44700652977648897 0.3342615852276842
000420 bd fd a1 e9 18 46 e2 bf 2f 21 0f cf 3f a2 a2 3f
       -0.5710568011417575 0.0363941135652247
000430 bf 07 ea b3 0c e5 ce bf 73 66 f7 f0 f1 d8 c3 bf
       -0.2413650396811686 -0.15505813852250902
000440 1c 5b 03 31 f8 70 dd bf 85 23 6d 4e d9 bc d0 bf
       -0.460020110954632 -0.2615264192468703
000450 3a 1f 42 aa 36 76 7c bf aa 24 c4 55 29 c9 e7 bf
       -0.006948674712596243 -0.7433058428879538
000460 64 61 2b c6 cd 12 e3 3f 56 76 1e 98 be 39 df bf
       0.5960453863618054 -0.48789944510813166
000470 97 57 85 35 fb 08 ac bf b4 1d ff eb 96 c2 e1 bf
       -0.05475602176981836 -0.5550036057765539
000480 3e dc 74 e6 89 12 d7 bf 22 bc 40 63 f0 69 d8 3f
       -0.36050651078716445 0.38146600430167343
000490 fd e6 a6 d0 2f 22 e3 bf 89 19 3d 46 25 dd c2 bf
       -0.5979231906160006 -0.14737382821676828
0004a0 c1 a2 ad 7c cc 41 e9 bf 88 44 e7 ad d4 80 de bf
       -0.7892820773241384 -0.47661320669892193
0004b0 7f 9c 39 7c 8d 05 f0 3f 85 ce 36 d0 4c 00 d4 bf
       1.0013556339779652 -0.3125183137264929
0004c0 42 45 dc 37 46 79 ef bf 75 a3 45 e0 fd ba d6 3f
       -0.9835539904617365 0.3551630678326128
0004d0 c3 e1 f7 19 1d ef d5 3f 28 0e f2 75 b9 bd be bf
       0.34271934066739734 -0.12008246545342927
0004e0 88 c3 d0 cd a8 5a e9 bf 4f c9 93 00 c2 1e bb bf
       -0.7923168201287902 -0.10593807710737234
0004f0 6e ec 2c 55 6c 99 b2 bf 6d d7 e0 a0 77 f6 d8 bf
       -0.07265355185966069 -0.39004317007799366
000500 41 ae 09 0f 57 1e e0 bf 68 f6 82 de 4c 60 8b 3f
       -0.5037036222178771 0.013367271938814443
000510 37 d7 c1 b8 ba bc bc 3f a4 57 ae 9e 23 e4 d0 3f
       0.11225478182481373 0.2639245080584891
000520 3d 83 40 f5 66 61 dd 3f 1f 8d 2c c7 e7 0e da bf
       0.4590699572600448 -0.40715975237454133
000530 bc e8 ac d4 6e cf e3 bf c2 81 32 d7 62 01 a8 bf
       -0.6190714029137534 -0.0468855750743873
000540 eb 1f 42 af 7c fb df bf 23 db 56 67 97 16 9d bf
       -0.49972455134456933 -0.028406491930321864
000550 86 de 67 2c cf e1 d2 3f 1f 4e 3b c6 fa f1 b9 bf
       0.29503230415819137 -0.10134856547966152
000560 17 53 34 4b f1 6d de bf 08 0b 53 14 e4 29 bb bf
       -0.47546036094836225 -0.10610795494271141
000570 89 98 c6 ab 22 1d ae bf af 7d 3f 14 ab 09 d2 3f
       -0.058816035717698396 0.2818401048407066
000580 ca fc aa e6 79 45 ed 3f 1b 45 9d 44 28 a4 d0 3f
       0.9147309785111244 0.26001936627024386
000590 7e 16 7c 98 4b f6 e9 3f 92 84 fd 96 1a a0 c5 bf
       0.8113153436867859 -0.1689484822518677
0005a0 1c c7 b4 06 27 cb e8 bf 69 79 3c e2 dd a6 e6 3f
       -0.7747988825778722 0.7078694742847748
0005b0 41 47 fd 43 bd 92 e9 bf 05 a1 c5 9b 5b d4 de bf
       -0.7991625144879678 -0.48171129428966736
0005c0 41 e1 0b ce 30 11 e7 bf c1 d3 af 8c 99 47 8d bf
       -0.7208484672874321 -0.014296722036286515
0005d0 72 4c 30 3f 6a 86 a9 bf 3c d2 b8 a3 db 60 f6 bf
       -0.04985363026948954 -1.3986469645871145
0005e0 bd df b8 f4 74 7f d6 bf a0 32 26 dc 7d 02 ea bf
       -0.3515293493142016 -0.8128041553296335
0005f0 b3 e9 00 4a 33 62 f1 bf 2f 8a 68 3e a8 b3 db bf
       -1.086474694324903 -0.4328404054123522
000600 85 3a 7b 3c 6c a3 e2 bf dd 8e 65 f5 ee 88 ec 3f
       -0.5824490720059009 0.891715506830646
000610 d6 2d 75 7a 0e 93 d9 bf b7 2e 3d 31 09 15 d1 3f
       -0.3996006198765064 0.26690892990584864
000620 d4 78 45 6c dc 5a d8 bf 8a 1d dc 4c 65 ed d2 bf
       -0.380545716985478 -0.29573948388903004
000630 2a 7d d6 ce 60 ce dd bf 3c bd 9d 2d d8 8e d2 3f
       -0.4657213230038503 0.28996853308395365
000640 65 5b 46 26 e3 e1 e7 3f 10 ad ec fc 62 a3 c4 3f
       0.7463241336398424 0.16123616552190656
000650 73 67 fd d9 99 20 e5 bf 7b 11 11 e6 88 37 e7 bf
       -0.6602296121229599 -0.725529145573588
000660 73 f6 5e 07 3a d2 e1 3f 1c c6 63 35 a5 fd ec bf
       0.5569124359096363 -0.9059625666397468
000670 44 40 5f 5f 47 2b cd bf c5 3b 1e 87 fa a7 e5 3f
       -0.22788326413001603 0.6767552031541234
000680 e7 55 07 b8 d7 26 db bf d5 37 99 53 41 5f a3 bf
       -0.42424576732204716 -0.037836114363571184
000690 36 ad 38 5f 0d 04 e0 bf e2 7e e6 03 34 b3 d0 3f
       -0.5004946574967224 0.26093769436736924
0006a0 fb 4a 64 d1 ac a4 cf 3f 74 98 8d 1c 2a 61 f3 bf
       0.2472129843159435 -1.2112218013149034
0006b0 0e 03 38 22 91 21 d6 bf f2 78 e5 c2 04 6f d7 3f
       -0.3457987627189575 0.36615103752946176
0006c0 d1 f3 78 91 8f e7 c9 bf aa 90 d5 ec 4c b3 eb bf
       -0.20237917521617857 -0.8656372666996692
0006d0 b1 2e 6e 88 72 9e e3 bf 0e 36 7d d7 51 31 e3 bf
       -0.6130917229324578 -0.5997704705020526
0006e0 ee 75 ef dd 52 d1 de bf f9 92 81 00 4b 16 d5 3f
       -0.48152610467317813 0.3294856553023205
0006f0 9b db 48 16 aa b8 ea 3f 89 da 3b 09 cd cd d7 3f
       0.8350420413251983 0.3719360914396153
000700 cd ec a1 40 9b 6c c6 bf 14 fb e4 c9 7a 80 c3 3f
       -0.17518940597424262 0.15235838754775755
000710 ff 26 b3 da 3e bf c2 bf 11 0f 6f 07 49 4f df 3f
       -0.14646135023786397 0.4892141888233122
000720 ef aa b8 03 b3 28 e1 3f b1 29 5b 2b ca d8 a0 3f
       0.5362181732828882 0.03290397433518722
000730 b6 69 e3 40 b8 9a c5 3f e6 09 0d 88 9e cb f0 bf
       0.16878417175651145 -1.0497117342462103
000740 3b d3 7b 60 83 76 e1 bf 02 cb 42 ec a9 6e ec bf
       -0.5457169422576053 -0.8885087599249746
000750 69 66 03 1a 3c 79 d0 3f d6 82 97 b0 3a af d7 bf
       0.2573995832477523 -0.3700701450853051
000760 88 b0 56 f8 53 8e d4 bf fa 83 57 bf 73 35 b2 bf
       -0.32118701221293877 -0.07112811490470952
000770 db fc b6 c1 61 1c df bf b2 d5 da 2a 55 ad ce bf
       -0.4861072913881352 -0.23966469376106897
000780 74 da 6e 1b 1d e9 d9 bf 85 b6 85 18 4d 7d d0 3f
       -0.40485313109403553 0.25764777560002755
000790 7e 97 dc a3 6d 60 f0 bf ba 71 2b 26 a2 f5 da 3f
       -1.0235420609328396 0.42124227263937153
0007a0 29 20 b5 0a 9f 1c c7 3f 32 53 c9 f4 d6 2c e1 bf
       0.18056095145061704 -0.5367235928521039
0007b0 4a 58 f9 5f ca 52 e5 bf 5c 15 ee 33 fd d5 ca bf
       -0.666356265496469 -0.20965542827267825
0007c0 c4 cc ef 0f 48 34 db bf dd 61 71 04 80 62 e5 bf
       -0.42506600910492076 -0.6682739340567952
0007d0 4f bd 62 08 91 cf e8 bf c2 31 89 3f c7 1d d0 3f
       -0.775337711695025 0.2518175240009236
0007e0 13 dc 47 2c c3 8a be bf d0 f1 8a 03 85 4b d8 bf
       -0.1193048461062605 -0.37960934968921567
0007f0 7a 66 6c 1c c9 06 d5 bf a3 30 4d f0 47 3c dc bf
       -0.3285391595432895 -0.44117926089234966

bias_j f8 [100, 1]
000000 2d 7c 2d a6 8a 93 ed 3f 32 45 3d 91 07 a5 b3 3f
       0.9242604489953742 0.07673690124399427
000010 39 6e af db 77 dd 8a 3f 2c 22 9e 94 46 0b de 3f
       0.013117729560625612 0.4694382144303144
000020 ab 46 e7 7d 1a b0 e7 3f b4 0d e9 45 eb da ca 3f
       0.7402470072795116 0.20980587876884516
000030 25 6d 1d 34 7d 31 e0 3f 6c 19 82 7e 08 90 e7 3f
       0.506041147028928 0.7363321753371515
000040 54 9d 0e d5 89 41 f0 3f 49 b9 05 d2 e7 c6 e1 3f
       1.016000587705851 0.5555304624556722
000050 7f 03 dd cc 91 f9 e1 3f 56 c7 ea e2 da 41 e1 3f
       0.5617150307881359 0.5392889434790316
000060 00 73 a1 09 2a 20 c9 3f e5 b7 92 5e 21 6a d8 3f
       0.19629407377478714 0.38147768245369057
000070 33 6e 66 03 07 cf 8c 3f 41 4e 31 d9 5d b1 e6 3f
       0.014066748420012853 0.7091511957209563
000080 21 aa 2c 1f 67 7e ce 3f f0 c8 75 4c 0b e6 cb 3f
       0.238232507917318 0.2179578898754424
000090 58 82 c0 b1 09 fc db 3f f9 6d 20 5a fb ad e3 3f
       0.43725817068665185 0.6149880180632287
0000a0 e8 d4 cd 3c dc 6e ef 3f df c3 b6 cb 44 76 96 3f
       0.9822827518061361 0.021935534414016074
0000b0 f8 35 f6 65 71 fa cf 3f 1e 6a b4 be 8a f4 da 3f
       0.24983041266061412 0.4211756574965494
0000c0 e9 11 6c 4c 7c 3b e6 3f a2 81 51 3c ed 47 e8 3f
       0.694761418592461 0.75878011494574
0000d0 9d 3f 27 26 32 fd d8 3f 9c 63 04 41 75 51 cd 3f
       0.3904538509932481 0.22904840159096984
0000e0 2f 77 fe a7 22 8f cc 3f 6e 29 dc eb d3 bc e2 3f
       0.22311814501602487 0.5855502707138791
0000f0 94 40 8b e0 e3 9b f0 3f 40 eb db d0 2f 5b ed 3f
       1.0380591174362381 0.9173811988142475
000100 cb a9 05 61 09 99 e4 3f 30 0b 81 a3 db 01 ed 3f
       0.6436812300647089 0.9064768022002223
000110 15 7a e3 ca 86 5f d7 3f e3 65 98 3f 8b 20 d7 3f
       0.36520547688806576 0.361361324410238
000120 00 6a 2f 34 ae ea e5 3f 86 15 d3 5a 59 8e d2 3f
       0.6848975199930578 0.28993829602799115
000130 11 db e1 d0 cb 00 e2 3f f5 a6 97 3a 44 93 e6 3f
       0.562597187016623 0.7054768700010913
000140 9e 93 33 5d 82 1d db 3f 0d 2f 23 eb 85 15 e3 3f
       0.42367610074716733 0.5963773338821469
000150 31 01 bf d1 ec 27 d9 3f 40 16 24 45 d3 95 54 3f
       0.39306183321970695 0.0012564242538827403
000160 24 18 4d 02 f0 67 db 3f 77 9c f9 50 23 60 b2 3f
       0.42821884369584695 0.07177944876603869
000170 a0 67 91 86 aa 5e e9 3f bf 41 51 58 3e d4 a0 3f
       0.7928059223443036 0.03286928966611268
000180 65 18 5a 28 43 b7 e2 3f 29 82 50 50 e8 b3 c1 3f
       0.5848708904384351 0.13830284043889776
000190 7f a1 98 71 95 e5 cb 3f 64 ee 8a 4f d9 56 9e 3f
       0.21794384047212742 0.029628177146817328
0001a0 02 ca 26 76 4c 66 e1 3f 00 ff 1e b8 78 b9 e3 3f
       0.5437376315733788 0.6163905712237181
0001b0 2c 9e 30 1e 19 5d 9c 3f c8 78 06 ff 33 3b cc 3f
       0.02769889113201722 0.2205567355385425
0001c0 d8 d3 a5 df 95 a1 ec 3f a2 f7 55 30 11 a9 e9 3f
       0.8947247856254945 0.8018880790766512
0001d0 e2 91 81 35 48 5a d7 3f 76 8a 49 ce d5 50 eb 3f
       0.36488538003166415 0.8536175755546782
0001e0 7f e4 82 c6 dc 5d d5 3f 22 b1 9a 85 76 b8 d8 3f
       0.3338539064967065 0.38625872657100235
0001f0 48 28 06 dc 80 15 ad 3f d8 60 ff 74 17 73 de 3f
       0.056804682596592715 0.4757746355585488
000200 11 a4 70 cf 9c 72 d7 3f 3c 50 e5 6c e9 d3 e8 3f
       0.36637039430439794 0.7758681418295121
000210 d6 13 e8 f6 50 2e c6 3f fb ad 4b 41 43 81 e0 3f
       0.17328846031173722 0.515779140024676
000220 c7 19 23 fd ed 96 c1 3f 71 93 01 7c 85 94 ee 3f
       0.137418507196527 0.955630056571506
000230 46 6d 9e ca e2 ce ef 3f 5a 2d 6a 6c 29 96 de 3f
       0.9940046269797811 0.47791514956835146
000240 a8 37 be 5f 85 fc e7 3f a3 01 c0 c7 61 4c e2 3f
       0.749575316427344 0.5718239690177608
000250 f1 91 da 5d 33 71 b4 3f d1 17 4b 2f 35 88 ac 3f
       0.07985230485298424 0.05572668268500503
000260 64 09 7d 49 78 ff b3 3f 51 ac c5 6c 38 54 a5 3f
       0.07811691087866773 0.04165817573342479
000270 5b 30 0f 4f bf 84 d8 3f 4b ae 33 30 66 1f e0 3f
       0.38310225220334865 0.5038329068606314
000280 9f 4b 39 4a 43 1a ed 3f f5 d6 54 f0 b6 77 e7 3f
       0.9094559144672195 0.7333635992024187
000290 63 5d bc 5e 2c 08 df 3f f5 f0 8e f2 1d 97 d2 3f
       0.4848738598970696 0.2904734486326242
0002a0 58 82 d5 dd 71 de db 3f 16 f6 5a 8a 21 98 a7 3f
       0.43545195258596925 0.046082542552067604
0002b0 d4 09 7e ae 15 3a ef 3f 0f 35 9b 03 e3 31 e0 3f
       0.9758404167226282 0.506089694064629
0002c0 c9 3a df a7 86 3c e2 3f a1 eb 78 ed 06 32 e7 3f
       0.5698884276151485 0.7248568189746615
0002d0 9d e8 db 2a 82 f3 b8 3f a0 a8 d3 5d b5 98 90 3f
       0.09746564432490108 0.016207536555989166
0002e0 85 d7 cc b6 1f ce ed 3f ff a7 dd c5 59 7c d2 3f
       0.9314116068187422 0.2888397629054679
0002f0 e5 db 37 be 83 d2 ed 3f 0e eb 3f 60 f0 59 db 3f
       0.9319475856017304 0.42736443900473453
000300 6c 01 d5 67 14 f5 b8 3f ba 34 5a fe 8f 72 e8 3f
       0.09748961958849173 0.7639846771068257
000310 e9 5d 2f 81 2a b7 ed 3f 4c 1b f0 47 61 50 d5 3f
       0.9286091349740079 0.3330310060995785

bias_k f8 [20, 1]
000000 4e cf 36 71 a8 2f a9 3f a7 a8 94 b3 58 b2 d7 3f
       0.04919172651298585 0.37026040589501935
000010 80 27 1c f0 49 28 cd 3f d2 bb a7 13 a9 a3 df 3f
       0.22779201721305853 0.49436404151395863
000020 15 c7 0e e3 09 03 e4 3f 87 44 75 6a 39 11 e1 3f
       0.6253709253998944 0.5333525733241381
000030 31 7e 04 4a 69 76 d1 bf 92 2b ed bd 29 53 d5 3f
       -0.2728522513225214 0.3332008700132799
000040 09 3a 44 18 21 ce ce 3f 8c 48 03 54 19 81 bb 3f
       0.24066556630027972 0.10743864346594217
000050 05 42 bb 35 74 68 c8 bf a3 1c 15 d6 14 9b 56 bf
       -0.19068768142325623 -0.0013797477225397168
000060 1d bf cf 15 d0 21 db 3f 74 4c b2 5c ef 83 ab bf
       0.4239387715342547 -0.053740959229934854
000070 28 d5 94 3d bb 93 e3 3f 1a e0 b9 32 a4 07 b1 bf
       0.6117836191903381 -0.06652284849576554
000080 96 2e 6a f2 7e ec e4 3f 94 3a a2 67 bf 76 d6 3f
       0.6538691267646353 0.3509977829025186
000090 07 e3 bf 29 54 fa e2 3f 85 74 38 49 73 a5 e1 3f
       0.5930577102109006 0.5514465742195546
