FIT3081 - Image processing/Assignment3/KangHongBo_Exp3_Weights.txt.npz (npz, 3666 bytes, 4 tensors)

wji f8 [10, 16]
000000 ce ef a1 11 cb 20 19 c0 07 2f 2a e6 a0 00 00 40
       -6.282024646290621 2.0003068906424946
000010 18 aa 1e 3e 3d 37 0a 40 c7 9e 20 19 65 3f 12 c0
       3.276972279845051 -4.561909096351605
000020 ec cf a2 96 af 7c d4 3f 70 1f b4 98 b2 b6 e6 3f
       0.3201102229170363 0.7098019583217887
000030 38 27 82 47 b7 81 1a 40 1f a8 34 c3 aa 0a 04 c0
       6.626675717657967 -2.505208516163307
000040 de 78 4d 6d eb 30 fd 3f 2f a2 ac cf 5b b0 12 40
       1.824443270648366 4.672225232040133
000050 57 dc 89 10 43 43 f1 bf ff c5 98 59 5c 0f 08 c0
       -1.0789213796649813 -3.0075003623721837
000060 01 4c ae 65 2a ff 13 c0 a4 49 ce d4 58 15 1f c0
       -4.999185169947851 -7.77084667691307
000070 8e 82 eb 75 90 5d 14 c0 ca e6 00 a3 69 f2 f8 3f
       -5.091371386050595 1.5591827742886601
000080 7e d4 ce de a0 23 ec 3f 9c 0e c4 10 47 fe 0e c0
       0.8793491698949223 -3.874158984168231
000090 96 f4 43 f6 e2 4d 0e c0 3c 39 33 95 5b 0d c7 bf
       -3.7880305518616053 -0.18009514603768106
0000a0 16 cf 8a dc e1 f2 be 3f 7a 33 d7 43 02 87 f1 3f
       0.12089358934718705 1.0954611444496707
0000b0 d2 3a d2 ef 85 03 b1 3f e0 31 e7 b8 dc 36 16 40
       0.06646000962266932 5.553576363669407
0000c0 0a a6 63 bb db 60 fb bf 80 c1 85 75 2f 5c 0d 40
       -1.7111470527546566 3.67001239599648
0000d0 87 6c b9 5d 76 84 1a c0 22 30 9e 75 50 c8 1c 40
       -6.629357780878428 7.195619428424864
0000e0 0b cf 60 cf 31 a1 17 40 41 33 f1 8b fe d9 24 c0
       5.907416572841394 -10.42577016181315
0000f0 11 b3 26 e0 e7 10 1e 40 a8 24 6a 57 2e dd 18 c0
       7.516509535181073 -6.215997091153589
000100 e8 8d 67 e1 e2 66 09 40 c8 7c 10 e8 de f2 f1 bf
       3.1752374276854773 -1.121794611455515
000110 68 6d 80 98 ef cd 23 40 eb ce 66 11 e9 45 13 c0
       9.902218595196885 -4.81827189626686
000120 f7 32 c3 c9 a6 77 20 c0 12 03 e3 d8 4c d5 20 c0
       -8.233694367483151 -8.416601922713685
000130 e8 9b 66 41 a3 1d 03 c0 5b eb 75 91 0b c9 e7 bf
       -2.3894715413512024 -0.7432916489627631
000140 49 8e ab 08 ff 42 18 c0 cb e5 06 86 dd 89 f6 3f
       -6.065426001997886 1.4086585269381995
000150 fa f0 23 66 2e 5e ef bf fb b5 fe 4b 7f 01 08 40
       -0.98024673413559 3.0007310807329737
000160 61 42 f2 cc 3a 68 df 3f 21 f4 16 40 5d 4e 00 40
       0.4907366753987273 2.0382637984280483
000170 ae 10 4f a5 85 8a 19 40 eb 8e b3 48 51 ad c1 bf
       6.385275443030123 -0.1381017308223059
000180 b7 3f 25 e8 6f 1a 0c 40 81 e5 7f 8a 42 1b d2 bf
       3.512908757817026 -0.28291381383277076
000190 38 16 34 f7 3a 94 1b c0 3c 9d e0 e9 73 84 03 40
       -6.8947561860600715 2.439674212615186
0001a0 af 98 ac d8 08 80 00 40 e8 8c b0 b3 91 ab ef bf
       2.0625168731376884 -0.9896934995234945
0001b0 f9 08 29 c0 33 d8 16 c0 c4 71 3a 37 ee 11 fd 3f
       -5.71113491297205 1.816877570853749
0001c0 3a 45 85 8f ae 71 0d 40 6b c6 9c 59 e1 c9 07 c0
       3.6805087292238143 -2.973574352356811
0001d0 90 a4 cd f4 9d c7 d5 bf aa 86 74 d0 88 ae f2 bf
       -0.3403086558015014 -1.1676109450130903
0001e0 73 53 d4 46 6e d6 fa 3f 08 7e db 0d 64 a7 07 40
       1.6773512617848751 2.956733806858896
0001f0 b0 ac 74 6f 85 64 01 40 d2 d5 66 1a 9d c9 21 40
       2.174082632778287 8.893776726773385
000200 31 4c 22 7a 4e 83 0a 40 48 d1 10 f5 5b 17 21 c0
       3.3141145269123844 -8.545623453429144
000210 ac 4c 4f 6f 5b 38 ee bf f9 49 dc 6f d8 ce 19 c0
       -0.9443795370119878 -6.451997516460772
000220 3b a7 f1 7f b1 66 08 40 0a 00 0f f7 9a 24 11 40
       3.0501432414647787 4.285747394838845
000230 9e 34 71 cb be a2 23 c0 50 b5 a2 a0 7b 73 0e c0
       -9.817861898011241 -3.806388144460165
000240 99 c1 45 77 1a a4 0f 40 fe 55 80 28 27 3c 0b c0
       3.955128604713718 -3.40437156335497
000250 1e 1a 57 3b a9 0f d4 bf 46 d8 7b 41 65 f6 0a 40
       -0.31345587534852537 3.3703103176040115
000260 21 0c c2 38 13 38 02 c0 84 b7 45 12 99 79 ed 3f
       -2.277380412504059 0.9210934979325747
000270 b3 c0 9f a1 90 a0 01 40 37 a6 09 22 84 38 f5 3f
       2.2034008623960175 1.3262978868100512
000280 79 d3 1f d5 8f d9 fa bf 59 f5 91 5a 8f f4 18 40
       -1.6781156850022099 6.238828101309388
000290 fe ad e5 ef 4e b6 21 40 38 61 9b 1b d8 c2 12 40
       8.85607099226672 4.69027751098502
0002a0 38 a4 85 67 87 41 14 40 2a 8a 7c 37 be 39 12 c0
       5.06399308922942 -4.556389681793499
0002b0 8e c1 0e 6c 81 1b f1 bf 62 10 0d ab 95 83 fd 3f
       -1.0692152234078978 1.8446251565628917
0002c0 b3 03 e0 4a 45 a5 18 c0 b6 d6 32 df cd 26 c2 3f
       -6.161397142336614 0.14180920980805006
0002d0 4b 06 de 84 75 27 22 c0 b9 38 57 99 c0 3c 01 c0
       -9.077068473913775 -2.154664228414813
0002e0 f0 fc 36 8d 61 de 19 40 54 8a 9c 1a 51 35 fc bf
       6.467169004899219 -1.7630167998801385
0002f0 33 7c cb 7f 97 7f 14 c0 70 5d fa 4f 84 cb 04 40
       -5.124601361078976 2.5993734596519786
000300 16 73 33 d9 3e d7 f0 bf bb c0 31 05 7d 20 1d c0
       -1.0525501713193015 -7.281726914560006
000310 d8 ba 9e df 8b 47 0b 40 64 37 53 f0 e7 0e fd 3f
       3.409934756309081 1.816139162797719
000320 43 d6 9e 5c a3 5c 0a c0 20 e9 47 65 ee 04 aa bf
       -3.2952334629033273 -0.05081887232150195
000330 49 d5 cd c3 30 b4 01 c0 42 9b 50 24 b8 ff 18 40
       -2.2129836365881244 6.249725882930592
000340 75 a2 91 83 13 77 0b 40 25 c4 fa 4e 4c a0 19 c0
       3.4331426886386063 -6.406541093879274
000350 70 e6 59 ea 5f c5 0d 40 61 28 ca 23 52 51 21 c0
       3.7213743504224155 -8.658829801967103
000360 76 77 1b 14 2a fd f0 bf 17 63 ca e9 8a 4d 21 40
       -1.0618077073517873 8.651450448947385
000370 ab 08 f1 e9 06 81 13 c0 e8 15 90 4c db 21 fa bf
       -4.876002936684169 -1.6332657805190767
000380 6f ff 87 e8 c6 0b 03 c0 9d c9 ff 41 7f 39 f9 bf
       -2.380750481272052 -1.5765373781292518
000390 05 56 aa 1d db 48 12 c0 0f 58 c6 53 ff 38 e0 3f
       -4.571148360749707 0.5069576870180316
0003a0 55 b4 60 e9 b4 56 16 c0 52 dd 04 fa cd 19 10 40
       -5.584674498107309 4.025199801012905
0003b0 0c ed 44 c4 42 08 da 3f bd df 20 f4 c9 cd e7 3f
       0.4067541996661965 0.7438707130559049
0003c0 26 00 2d be 70 e8 eb bf 1b e5 3e 60 6d 1e 10 40
       -0.8721240724917194 4.029714111174395
0003d0 5d 4d f4 b8 bf 93 fa bf 88 a6 38 01 23 8d 11 40
       -1.6610715126779134 4.387828845102952
0003e0 da f6 14 cd 23 35 19 c0 83 26 82 32 ef 18 0f c0
       -6.301894382862622 -3.8871749826401483
0003f0 33 d7 43 fe 68 3b 02 c0 21 28 5e 84 9a 6b f3 bf
       -2.279008852429706 -1.213770405828207
000400 80 b3 9a ba ec aa 16 40 03 1a b5 60 f5 89 f9 3f
       5.666918674175463 1.5961812760957634
000410 7c 8a 09 c5 49 93 fd 3f c7 2f fa 2a 55 b8 f5 3f
       1.8484590241211256 1.3575030974197817
000420 53 48 a6 d5 e8 ab e3 bf 89 34 34 82 f9 f7 13 c0
       -0.6147350476114845 -4.992162737308839
000430 92 24 65 f8 8a 45 13 40 86 0b b0 e1 5f a3 15 c0
       4.817912942097921 -5.409545446748671
000440 41 cc 76 dd 88 4b 13 c0 72 0c c9 98 d2 2e 16 c0
       -4.823764286399695 -5.545725238104852
000450 e5 c0 28 fe 1c 98 19 40 ec e2 ce 6e 30 53 f5 bf
       6.398548098790546 -1.3328098610347139
000460 cf 11 2f 58 3c e1 12 40 77 df b7 9f a5 88 e3 bf
       4.719956758377932 -0.6104305381295337
000470 10 e0 b1 43 b2 c7 03 40 15 56 e1 ab 34 b3 13 c0
       2.4725079811723916 -4.925005612972673
000480 9e 89 aa a9 2b 68 0c c0 ee 75 bd 54 7a 37 d5 3f
       -3.5508645301026283 0.33151109958075053
000490 34 86 dd 54 fd 05 06 c0 a1 d5 22 62 82 e4 f9 3f
       -2.7529245977500754 1.6182884057464906
0004a0 51 bd 0b 3e e4 a0 0e c0 04 29 19 1e ba 6d 11 40
       -3.828560337765943 4.3571552946907595
0004b0 91 58 5f f8 5f 24 ec 3f 0c d2 f1 a2 6c 96 f7 3f
       0.8794402934097595 1.4742246975921516
0004c0 86 67 9c 77 ff da 12 c0 01 e7 e2 d2 7e 1c 15 40
       -4.71386515514485 5.277827544306775
0004d0 13 db e5 a5 96 5b 10 40 16 61 04 57 67 76 19 40
       4.089441864160807 6.365628585474289
0004e0 50 d6 df 27 bf e5 10 40 6b 33 c7 8f 90 3c 03 40
       4.224362013852058 2.404572604433658
0004f0 f0 fc 4f 82 83 3e 04 c0 d8 d9 05 07 ff a8 e1 3f
       -2.5305242710743343 0.5518794190564291

wkj f8 [15, 10]
000000 74 c4 f0 69 13 1f cb bf 89 fe 82 42 9b 56 14 40
       -0.21188585923076497 5.084576644177681
000010 04 85 c3 36 a0 95 d1 3f bc 95 c7 29 9f 0a 20 40
       0.2747574362566214 8.020745568860427
000020 dc a7 60 6b fa 5b 1a c0 ee 0e 4d ba ff aa 1b c0
       -6.589822461866756 -6.916991148904101
000030 4f 23 27 6c b6 f9 fa bf 0b 3a 10 de c1 89 1a c0
       -1.68596498725147 -6.634528608074571
000040 0c d4 cc 12 4b a5 1c c0 3a db 1a 35 db 9c 88 bf
       -7.1614191949384 -0.012017929609425704
000050 c7 de 0a 2f 27 cc fd bf dd 41 df 5b 6d b3 0d 40
       -1.8623420560451664 3.712610929251453
000060 9b 28 b1 f2 7c 10 1f 40 4f 35 26 33 cd 4d e6 bf
       7.766101638853935 -0.6969972609528358
000070 3f 16 53 e9 4d 16 2c c0 e9 bf 55 cb 69 a0 13 40
       -14.04356316699261 4.9066535731398995
000080 c9 0b 15 cb c8 21 1a c0 e5 75 c6 7c 71 5d 1d c0
       -6.532992528113888 -7.341253232586927
000090 a6 2e 9c 5f ac 92 1d c0 9c c1 34 75 90 c2 0c c0
       -7.393235677631003 -3.595002093956465
0000a0 3e 68 f1 f2 0a d4 0b 40 35 1f 9e c4 43 d0 14 c0
       3.4785365085527067 -5.203383514548297
0000b0 41 44 46 64 fd 9c 17 c0 b5 85 20 27 eb e4 f9 3f
       -5.903310362614378 1.6183883217239388
0000c0 57 7c 92 d3 49 c5 ea 3f 6c 0a 90 cc 64 97 11 c0
       0.8365830547589991 -4.397845455447719
0000d0 e6 57 82 25 53 14 1c c0 97 71 f9 a2 31 31 0e 40
       -7.019848428802993 3.774020455586832
0000e0 e0 e4 8b 2c 6a e2 0c c0 10 fa ed f8 2e d7 e3 3f
       -3.610554073352077 0.6200175153642835
0000f0 2c 7d 99 9d 95 76 0d 40 a1 69 17 78 b2 02 1c 40
       3.6829025566545592 7.002633930615418
000100 7a db 7e 70 2d 0a ff bf 9f d0 af c0 00 b6 15 c0
       -1.9399847406727688 -5.427737246256725
000110 06 f8 95 48 00 9e 02 c0 fc b3 66 ed ed 83 c4 3f
       -2.3271489783064707 0.1602761658845394
000120 4b 1f 88 cb 95 63 10 c0 59 71 e8 ef 35 e3 ef bf
       -4.097251110251658 -0.9964856801703191
000130 29 5b 25 be b3 68 9f 3f 98 1d de fc 7b 7f d8 bf
       0.030672844391428065 -0.38278102583032014
000140 f9 d3 e9 df 6d fb 1e 40 fd 6d b0 7e 2d 45 24 c0
       7.745536326071481 -10.13511272338564
000150 8c b7 72 4b 1d 47 fb 3f 35 57 7c b1 bc 42 14 c0
       1.7048619219963 -5.065172932829047
000160 87 59 38 1c 80 eb e5 bf c4 75 84 de cb 81 f4 3f
       -0.6849976111578123 1.2816885654532237
000170 6a 55 f7 b5 ed 21 12 c0 e3 29 4a 8d 4a 24 1e 40
       -4.533133357258842 7.535440642978275
000180 80 a2 a0 4a b5 14 24 c0 29 19 59 96 cb 7a 0e c0
       -10.04044564448236 -3.8099586244526518
000190 1f b7 7f 72 3c 11 26 c0 35 d1 25 77 64 00 13 c0
       -11.033664301004647 -4.750383245165996
0001a0 e0 e3 33 03 61 bb 0c 40 0b 50 22 36 b5 f6 12 c0
       3.5914936304293263 -4.740925641865043
0001b0 72 26 5d 6d ca 64 09 c0 f9 03 8b 93 ba b8 11 c0
       -3.17421422424814 -4.43039923225387
0001c0 61 35 86 d9 6b f2 fb 3f 59 2a 19 07 cd c1 05 40
       1.7466848847428411 2.719629340606201
0001d0 10 88 75 ee c0 33 15 c0 ed 8f 55 e5 42 bc be 3f
       -5.3005406626925975 0.12006013964634095
0001e0 b2 21 52 7f 37 57 1f c0 7f 28 7a 37 91 a9 0d c0
       -7.835172643077771 -3.707796510138962
0001f0 f3 ea ee a7 fc ee fb 3f 20 62 97 f4 d5 10 03 40
       1.7458464202779254 2.3832205876062886
000200 55 a8 fb 8c 7f b9 20 c0 26 ae c3 7d 58 c2 fa 3f
       -8.362301259727397 1.6724476730986537
000210 f0 3c 63 ed 89 a2 16 40 98 91 50 4f ef c2 11 c0
       5.658729275877008 -4.440366019527936
000220 f0 ac 5f 25 ab a3 fb 3f 4c ee ef b6 d6 e4 06 c0
       1.7274581394111088 -2.861737660595997
000230 f0 78 29 dd 9e f1 0a 40 37 76 63 2c 0f 5b 06 40
       3.3679787901193023 2.794462534699757
000240 6a 94 42 64 e4 cf f7 3f 34 bd 25 c6 74 ab be 3f
       1.4882549206170332 0.11980371320327238
000250 8b 20 53 d2 a4 e0 1d 40 09 c4 dc 06 51 d8 00 c0
       7.4693787444340485 -2.1056232963678707
000260 82 00 05 7f c1 4c 19 c0 f3 fa e7 26 0c 8a f9 bf
       -6.324956879310891 -1.5962029952785854
000270 41 51 8e c6 32 89 9f bf 57 ee 0d c0 ce 9b 20 c0
       -0.030796807640926408 -8.30431175394112
000280 07 df 2c 99 9f 8b 16 c0 6b 22 02 44 d4 09 fc 3f
       -5.636351006854745 1.7523996979308787
000290 a3 86 e0 b9 e4 ad 0c c0 11 60 ee c1 24 78 07 40
       -3.584908916630256 2.9336638594504696
0002a0 a0 14 72 c5 58 a0 17 40 aa 0f 72 74 98 cc 0b 40
       5.906588635528493 3.474900159579154
0002b0 d5 d6 3c a0 76 03 12 c0 e8 93 b8 bb f5 8e 21 40
       -4.503382209504442 8.779218546182122
0002c0 e5 45 b5 de d1 fc 12 c0 72 4c 10 50 50 8a 18 c0
       -4.7468943403377795 -6.13507199382285
0002d0 d8 fb b3 44 d0 cd 1a c0 9c 06 05 fa 0a ac 10 c0
       -6.700989793286645 -4.168010622555496
0002e0 96 d0 7b 34 d5 87 14 c0 a5 c2 a9 6a bf 47 e4 3f
       -5.1326492500849294 0.6337582667602716
0002f0 bf 9b 56 b2 d0 4b 13 40 71 52 6d 7a 45 6b 15 c0
       4.824038301979214 -5.354757225916374
000300 3a d8 c0 39 fe 48 12 40 56 31 a2 e4 b7 8c 06 c0
       4.571282293696692 -2.81871012325261
000310 4c cf 07 67 e3 d5 00 c0 d5 cf d8 ea bf cb 14 c0
       -2.1044376420267437 -5.198974294169564
000320 45 c5 ab f6 4b 18 17 c0 28 11 c9 67 82 a5 10 40
       -5.7737272779789395 4.161630269667775
000330 4b e4 0f 4a bf e0 16 c0 35 65 d0 1e c9 8b fc 3f
       -5.7194797107886854 1.784127350203858
000340 0c c5 5f b7 6e 7c ea 3f d8 42 1f 01 dc 9c 1f 40
       0.827689512398281 7.903183000119235
000350 ff a4 9d 66 38 98 14 c0 17 6d f0 87 ba b5 1a c0
       -5.148652652141435 -6.67746937184281
000360 1f 64 87 67 e1 d6 e0 3f 0c 53 92 a1 74 cb e5 bf
       0.526230528073146 -0.6810858874983707
000370 45 9f 5f d9 e7 b5 f3 3f 5a 6d 9d 55 b7 f4 10 c0
       1.23191056167157 -4.238980615361777
000380 51 32 1f ee e3 15 20 c0 e3 60 12 90 8a 0c 1e c0
       -8.042754594143078 -7.5122473250596355
000390 5a fc 11 c3 a8 9c fd bf 8d d9 9f 99 61 11 f2 3f
       -1.8507468814784915 1.129243469329228
0003a0 80 4a ae a2 28 64 26 40 f9 da cf c7 15 30 f8 bf
       11.195622524047621 -1.5117395215181075
0003b0 74 4b 0e 85 a1 46 14 c0 e0 19 44 db 81 67 f1 3f
       -5.068975523946268 1.0877703251913928
0003c0 f9 89 12 97 c8 5b 05 40 9d ff 6c 8c f6 f8 05 c0
       2.6698161890537873 -2.746564004017229
0003d0 5c e0 a8 ba 99 38 0f c0 28 e8 c2 fe 15 7a fc bf
       -3.9026369650637616 -1.7798061324706484
0003e0 68 77 71 e5 e3 aa 13 c0 ed 38 15 f7 87 75 10 40
       -4.916884980249826 4.114776478452979
0003f0 8d e9 f9 dd ec 0f fb bf 5f 33 29 60 5c 42 a3 bf
       -1.6913880034395306 -0.03761566804732896
000400 43 0a 76 65 7b 2b ee 3f e6 73 6e f1 24 5f 1d c0
       0.9428078633939737 -7.342914364210605
000410 18 4b 3f da 20 10 1e c0 e6 ba 1d c2 b2 e9 09 40
       -7.515750322449797 3.2391104855845354
000420 90 c2 d3 c3 48 1b ee 3f 30 c3 5f 73 6e 45 1e c0
       0.9408305954694516 -7.567804148406864
000430 c6 69 13 46 1e d6 14 40 ba 88 56 e6 d8 61 1b c0
       5.209099860129248 -6.8455539694133964
000440 02 9e 32 ca 7f 1f f4 bf 27 4e be 62 e5 fe 13 c0
       -1.2576902292584013 -4.9989219120648505
000450 94 1a 07 8d f9 96 19 40 5b 2a 5d c2 db 82 04 40
       6.397436336096366 2.5638957199746932
000460 0c 4d 9b ca 7d 2d 0d 40 e4 cb 8e 6c bb 93 1e c0
       3.647212584366235 -7.644269653525928
000470 9f a0 c2 b0 f7 50 1d c0 b5 09 58 29 8e 33 1f c0
       -7.329069864157787 -7.800346990583809
000480 04 0b 35 62 ec b4 f1 3f e1 43 4f 87 df 5c 1f c0
       1.1066707454889988 -7.840696443760835
000490 b3 e0 0e f7 85 15 15 c0 f8 3f 1e 90 0e 3f 01 40
       -5.271018848689141 2.1557894953948527
0004a0 4c 0f 26 2b 8c c3 06 40 64 5e 82 bd a1 b0 d9 3f
       2.845482194041244 0.40140574938548057

bias_j f8 [10, 1]
000000 f7 ec 89 93 84 d5 05 40 35 29 e0 35 1d f2 11 c0
       2.7292567755190436 -4.486439554030132
000010 5c bc 50 9d 41 5c fb 3f 7c 38 b2 6d 29 a9 b2 3f
       1.7100235123760035 0.07289370468262918
000020 16 7d ed 6c 65 3b 1f 40 65 0b 76 fa 6f e8 ed 3f
       7.808004095072894 0.9346237079447347
000030 90 77 d0 93 ce d2 00 40 fa 94 b2 45 ad 15 0b 40
       2.1029330776208965 3.3855843968509562
000040 e4 b4 bf 24 12 08 e9 3f b8 f1 92 f1 18 db f0 bf
       0.7822352140189222 -1.0534905849918754

bias_k f8 [15, 1]
000000 4a 1c 62 34 a7 1a 01 c0 57 06 d7 15 20 90 fc bf
       -2.138014230007262 -1.7851868489382434
000010 91 c1 7d eb d2 51 14 c0 7a aa da eb c8 55 1e c0
       -5.079906158018631 -7.5837742664540375
000020 f3 6d 40 a4 4b 38 1f c0 7c c2 1c 74 40 00 b8 3f
       -7.8049760498356475 0.09375384173177709
000030 a8 73 49 94 12 66 10 c0 2b ee 65 95 91 8b 14 c0
       -4.099680249198094 -5.13629754480966
000040 b0 99 d8 18 b5 58 1e c0 ea d4 61 3b 8e 8b 01 c0
       -7.586628330440746 -2.1931423796873917
000050 65 79 a1 77 c1 69 21 c0 0e 2c 82 b7 04 f8 16 c0
       -8.706554163418966 -5.742205493278574
000060 8b 4c 6a 7a 63 e7 fe bf d8 99 9c b3 35 b2 1a c0
       -1.9314913541645946 -6.674032980378307
000070 03 e3 86 b3 27 51 06 c0
       -2.789626505426328
