FIT3081 - Image processing/Assignment3/KangHongBo_Exp2_Weights.txt.npz (npz, 11506 bytes, 4 tensors)

wji f8 [20, 49]
000000 ca 46 7f d9 7d 92 d8 bf 3e 7c 9c 8c eb ec e3 bf
       -0.38394113769491567 -0.6226709123910792
000010 8d e5 27 fb d8 b0 e4 bf 07 6e b7 0b 0f 75 f1 bf
       -0.6465878396403909 -1.0910788018871942
000020 88 61 8b 72 9a a9 f2 3f dc 57 f5 3e 71 49 df bf
       1.1664070581810808 -0.48885756634024147
000030 c2 c3 ba 51 5e df d0 3f 89 7b e4 76 84 c5 fc 3f
       0.26363332730676003 1.7982220310438797
000040 dc 9d bc 7c e8 56 f4 3f 00 4f 52 85 e5 52 fa bf
       1.2712178108721366 -1.6452384193298144
000050 af 24 4e c7 7a 7e e5 3f 3b a3 24 7b 1f 29 ed bf
       0.6716894047432528 -0.9112698941363314
000060 9a 10 d5 74 f8 60 c3 bf 5d 4a a6 eb d7 ba fe bf
       -0.15139680580808063 -1.9206160740910925
000070 cf a6 b5 1a 12 ed eb 3f 7e 31 c3 0b 02 c0 f2 3f
       0.8726892968818108 1.1718769511672629
000080 df f5 a5 97 4d be e2 bf 0e f5 d6 6e 48 d8 f8 3f
       -0.5857303583031203 1.5528034524607537
000090 d6 cd 94 8a 9e e3 70 bf 5b c3 1a ab 22 b0 f0 bf
       -0.004123324682314208 -1.0430018123408533
0000a0 b9 65 5f a1 e6 cb 02 c0 58 f5 2c 63 66 8d ef 3f
       -2.3495609862554514 0.9860107361816217
0000b0 58 6a 2d 20 9f 44 e8 bf f2 a6 d4 82 c8 9a f6 bf
       -0.7583766582932396 -1.4127888784955158
0000c0 97 73 f2 18 30 fa fc bf fb f7 ab cf b4 0f f7 bf
       -1.8110810255522887 -1.4413345443895185
0000d0 75 c3 c6 f6 3c e9 0f c0 45 54 3c 6f 02 59 00 c0
       -3.988885810795575 -2.043461674717522
0000e0 65 6d 90 df 71 5b f8 3f a3 96 19 3b 89 be f9 3f
       1.5223253949141846 1.6090175922958359
0000f0 1c 85 c9 12 8c b9 e3 3f 68 68 8c 7b 40 12 fe 3f
       0.6163998000085118 1.8794560266601597
000100 59 da bc 30 fe 4e f4 3f e8 09 5d 4f 8c df e6 bf
       1.2692853835884732 -0.7147885847155608
000110 15 39 97 fe d5 79 f0 bf bd 9d 92 10 7f be 00 40
       -1.0297450966787143 2.0930157942527488
000120 65 0c 7a e7 7c 0c ee 3f 44 f3 1f 05 39 d0 e6 3f
       0.9390244027166658 0.712917814263712
000130 52 93 a1 5f fd a6 d0 bf 14 f5 05 0f f4 01 d9 3f
       -0.2601922449014654 0.39074422328106206
000140 88 ab d7 c2 28 fc e7 3f 76 c1 bc 3c 60 8f e5 3f
       0.7495311551586932 0.673751944186775
000150 38 d3 25 0d 36 7e b4 bf 8c 30 fa 6e d8 ac ee 3f
       -0.08005082913389294 0.9585992972875075
000160 25 a2 87 54 6c 6b e6 3f 7c 70 74 01 c4 83 da bf
       0.7006131792996412 -0.4142923368651805
000170 ae 26 16 2d af b5 c9 3f 31 29 fc 17 a2 e8 e5 3f
       0.20085706426134692 0.6846476047951794
000180 60 1f be f3 99 c9 d2 3f 8a ef b7 26 21 d9 dc 3f
       0.2935547714519 0.45075253277877236
000190 d1 c6 a0 07 2c 80 f4 3f 14 ef 01 21 f4 72 09 40
       1.2812919900865618 3.18112970149185
0001a0 3a 1a c6 3b 89 5c f8 3f 09 c6 f2 70 7c 2f ff 3f
       1.5225918135562453 1.9490932857555683
0001b0 b3 50 6b 7d 60 1f f2 3f b9 24 a8 b5 73 b3 e5 3f
       1.1326603793323045 0.67815576057287
0001c0 86 f5 c5 1e 57 f7 e1 3f d3 28 83 90 13 ee b0 bf
       0.56144290933996 -0.06613275793202726
0001d0 f7 9a 7c 00 ff 89 ff bf 2f 9a 25 a4 fd 4d d9 3f
       -1.9711904543889298 0.39538517980546123
0001e0 55 17 fa 13 94 43 fc bf 50 dc 4e 8e 90 89 e0 3f
       -1.7664986400936489 0.5167925624326788
0001f0 5d a5 70 f1 6e a0 d5 3f cf 38 4a 7b 1a 34 fc bf
       0.33791707590224523 -1.7627205673230042
000200 bf 86 ee 65 0e 9e f7 bf 65 70 63 69 fd 51 f3 bf
       -1.476087949915765 -1.2075170628295606
000210 64 27 f4 e7 ad 27 de 3f 12 70 ec 14 50 66 f0 bf
       0.4711718335316759 -1.024978715641741
000220 46 31 47 f1 8f 45 f7 3f b6 e8 be 91 89 5d c3 bf
       1.4544829773831949 -0.15129203430644161
000230 2d a5 18 58 75 cb c4 bf ee ca 48 7d 2f d8 b9 3f
       -0.16245905686927511 0.10095497902583947
000240 79 dc eb e9 73 6d fd 3f ed 85 54 dc f1 a9 ad 3f
       1.8392218720962588 0.057937200685284164
000250 57 18 c0 91 2b 03 ec 3f 7a c0 2a b0 95 9b e5 3f
       0.875386986416525 0.6752422753106793
000260 8d 52 0d 53 9a 0c e1 bf 98 89 7a 2f 92 8a aa 3f
       -0.5327884313688444 0.05183846311162482
000270 30 60 c5 af 7b 5b e5 3f d8 95 b4 bd d4 13 d8 bf
       0.6674173768069576 -0.3762103893844517
000280 a8 96 94 02 e0 a5 f7 3f 46 26 90 34 eb 7c 00 40
       1.4779968357847029 2.0609954935542047
000290 b6 b2 1e 25 60 8b d2 3f 3d 5d 0a b7 d4 a2 fc 3f
       0.289756809472958 1.7897536420840219
0002a0 96 08 4b 70 15 56 e1 bf 8d 90 bd e4 00 46 a3 3f
       -0.5417582696175198 0.0376434592460849
0002b0 0b 00 f1 6a a6 50 d1 bf 73 ad b7 06 2c 92 f3 bf
       -0.27054748958107727 -1.2231865179445236
0002c0 5f 31 ca ed 8c 54 01 c0 04 a3 65 e5 3d b3 c4 3f
       -2.166284425480782 0.16172002507234862
0002d0 f5 89 f2 69 6b a0 fa 3f 54 e1 8f 34 fe 9f d1 bf
       1.6641649378367422 -0.27539019711504875
0002e0 a5 8f b6 92 89 b4 fb bf 00 3a ae ad a7 1e de bf
       -1.731576512430345 -0.4706210323428479
0002f0 c4 6d a4 ae ca 39 fd bf 82 14 58 2d 15 bb 9f bf
       -1.8266093084301795 -0.030987101452428785
000300 e4 86 9e 7a 9f 79 02 40 ec 9d 78 6a 88 12 df bf
       2.3093862132671905 -0.4855061568982524
000310 94 cf 67 47 60 b4 c4 bf d7 24 89 c5 20 96 f4 3f
       -0.1617546414050791 1.2866523472060203
000320 9b 03 e9 f7 3d aa c0 bf 8a d4 ab 9b 5c b6 f2 3f
       -0.1301953754901007 1.1695219117075646
000330 f1 ad 70 d1 af 15 eb 3f 80 ba b0 c3 dc bd e4 3f
       0.8463973131778727 0.648176557738978
000340 c9 44 6d 48 2e 95 aa bf 3b 2f 5c 57 ba 77 b0 bf
       -0.051919409123578904 -0.06432690270247303
000350 3d f7 b5 2b 78 21 f3 3f 64 e2 d6 04 27 77 e3 bf
       1.195671244378402 -0.6082949728507399
000360 0a 52 e5 13 ed b8 dd 3f 75 56 0d 3b f6 ee b0 3f
       0.464411992482639 0.06614626828862831
000370 d4 bd a7 4d a0 fc b9 bf 3d 1a 68 a9 dc 59 d2 3f
       -0.10151101966743364 0.2867347387658901
000380 ae 1c 7e 87 29 86 d4 bf a3 48 3a 92 38 c8 e0 3f
       -0.32068861228658363 0.5244410377511212
000390 80 b7 a0 4d dd a3 e7 bf 46 69 6f 3b d7 70 d1 3f
       -0.738752986542508 0.2725122528478504
0003a0 03 61 c9 f6 4c 31 a4 bf 14 55 6d 91 12 43 e9 3f
       -0.03943863403827843 0.7894375648853917
0003b0 76 14 b8 01 79 e4 d2 3f cd 2c be 0e 02 ba c0 bf
       0.29519486587407273 -0.13067651481501344
0003c0 8e d3 e9 a8 bb 24 f4 bf 47 3a f5 9d 42 10 f0 bf
       -1.2589680288485599 -1.0039697809439916
0003d0 3a 1c 38 3e 7b 65 e7 3f 72 a5 41 20 c4 bd e4 bf
       0.7311378684252141 -0.6481648092277921
0003e0 6c 27 16 23 19 30 b3 bf 6d 24 46 01 0e 82 d4 bf
       -0.07495267016034085 -0.32043790935910615
0003f0 b4 fb f7 9c d8 c0 dc 3f fa 67 de 23 ff f2 c7 3f
       0.44927039460156526 0.18710316897778495
000400 19 06 25 1f 8c 18 e2 3f 33 35 ca 78 5c d3 97 3f
       0.5654965027135318 0.02326721656077275
000410 bd b2 fc 7f 87 d9 b7 3f 70 f2 df 90 d6 83 e9 bf
       0.09316298365292659 -0.797343523939686
000420 d3 83 62 18 98 bf e6 bf 9c e0 a0 4c 17 53 e8 3f
       -0.710887954355821 0.760142945923707
000430 ff 51 66 57 e0 00 df 3f c6 81 76 8f 67 73 d2 bf
       0.4844284871590218 -0.2882937336926513
000440 b1 f3 3f ec f1 a6 e2 bf c1 2b 75 34 f7 d5 f4 bf
       -0.5828790296796936 -1.302237706101309
000450 2a 1d cf 84 ca e4 e1 bf 51 ab 70 9c ee 77 e8 bf
       -0.5591785997320688 -0.764640145823572
000460 ac 80 42 0d 50 6b d2 bf 5b da d6 bb dc 6b e5 bf
       -0.28779984755420673 -0.6694167774902086
000470 48 4b 01 e5 b2 70 f0 bf b7 5c 6f 2d 62 24 fd bf
       -1.0275143571386298 -1.821382691841604
000480 d2 46 8c ea 1e 9b f7 bf 48 e7 9f b9 c0 bb f6 bf
       -1.4753712808637158 -1.4208380938493566
000490 80 74 ab 5e ec 38 a9 bf b0 27 c7 7b b8 da c8 bf
       -0.04926241546284249 -0.19417482417912657
0004a0 e3 cd 66 87 db 97 f3 bf 2c 0b ee d2 ae 33 fa bf
       -1.224574593460482 -1.6376178969810082
0004b0 e8 b4 9f 57 ee 59 f7 bf 0e e8 17 6c 19 c1 d5 3f
       -1.4594558165365985 0.3399108462905368
0004c0 ce b4 d3 79 71 58 fb 3f 57 18 16 ad 28 a5 ed bf
       1.7090925940386117 -0.9264109974472018
0004d0 a9 62 60 9a 94 aa dd bf 23 6b 9e 10 cf bd e1 bf
       -0.46353640628653153 -0.5544200253092167
0004e0 b0 68 e6 42 20 4d 01 c0 4a 79 28 2d 82 e4 f5 3f
       -2.162659189850352 1.3682882083881673
0004f0 9b 01 3c 18 73 bc 11 40 4c 27 c6 ad b7 00 f2 3f
       4.43403280130624 1.125175169758637
000500 e5 ca 1b 12 0f 0b e9 3f dc 7d 95 7a 6b 79 e4 3f
       0.7825999597247032 0.6398217577188308
000510 bd 5a a5 c9 05 37 ca 3f 8a d2 25 d4 a4 88 c9 3f
       0.2048041567420195 0.19948253973747782
000520 26 f6 9b 73 9d d4 f2 3f f3 32 74 89 f9 92 e3 bf
       1.1769079700455989 -0.6116912541052372
000530 c5 97 9e 49 7c 2c e3 3f 85 11 b5 d3 cd 79 f4 bf
       0.5991803586846279 -1.2797373075310088
000540 3b d0 1f 95 9b 47 dc 3f c3 a0 3f 61 c0 38 06 c0
       0.44187058985631084 -2.7777106854956357
000550 32 c7 70 89 27 8d fa bf df 5c b7 8a e2 56 ff bf
       -1.6594615334292482 -1.9587121409038486
000560 28 c0 65 83 c1 80 d3 3f aa 06 e8 7c be 33 f2 3f
       0.30473363715919044 1.1376328353075373
000570 82 1d 21 14 49 2b c3 3f 33 17 c8 4c f2 e3 e0 3f
       0.14975846751097427 0.5278254985466674
000580 fe e3 0a 20 75 e0 d9 bf 4c ad 1d 4a c2 83 03 c0
       -0.404324799815697 -2.4393354215914425
000590 bf b5 19 2b 26 b9 ef 3f 40 ab a5 93 ae 72 ed bf
       0.9913512079053176 -0.9202492603047645
0005a0 bd 07 5c a9 d2 07 f9 3f ba b8 9d e0 07 cc ae bf
       1.5644098868947218 -0.06015038124938728
0005b0 07 9e 4c f8 45 9a e7 3f 03 fa b7 d1 2d 11 bb bf
       0.7375821923823772 -0.10573088045200767
0005c0 87 66 b6 32 24 2e fe bf 56 35 d7 2b 22 da e9 bf
       -1.8862649899441821 -0.8078776222479671
0005d0 c0 e4 74 f7 56 9c f0 3f 5d eb 7c 63 77 91 f5 3f
       1.0381688753389398 1.3480142484902082
0005e0 ee e4 9c fb 09 a4 9d 3f d0 e6 b1 28 5a fd e2 bf
       0.028946071607809758 -0.5934267802069488
0005f0 24 bc 72 7a 14 24 d3 3f 12 b9 65 fa ea 50 f0 bf
       0.29907714803533936 -1.0197553425928771
000600 bc 17 f2 40 53 4d c4 3f 3e cd 5a 62 41 74 ca bf
       0.15860977812934418 -0.20667283346629434
000610 4e c9 47 c5 72 0e e4 bf 68 86 ee 7f f9 10 d9 3f
       -0.626763711274444 0.39166104787191225
000620 20 51 95 c3 9e 1f d7 3f 36 15 12 8c 36 86 fe 3f
       0.3613049421303618 1.907766863966868
000630 d9 85 17 2a 87 ec ef bf 33 96 d1 5e 96 ef f9 bf
       -0.9976230451686049 -1.6209930137496371
000640 c7 56 82 b0 8b c7 fe bf 8f dd d8 af 0d eb f6 bf
       -1.9237172026527547 -1.4323860997227233
000650 3a 82 54 81 4a f7 d1 bf ea 48 bf cb 41 76 dc 3f
       -0.2807184470166565 0.44471783539951437
000660 86 ea bd 84 2b 62 f6 3f 96 cc 97 3b 93 69 a0 3f
       1.398967283747568 0.0320554743047065
000670 aa 55 51 0a 9a 15 df 3f 90 81 fe c7 8a 18 db bf
       0.48569346435155103 -0.4233729317729962
000680 0e 4d eb 24 08 8a ea bf 5b 65 af 20 c5 97 e5 3f
       -0.8293495865895311 0.6747766149884841
000690 97 05 5d 99 28 1f fb bf 07 81 df 8e 5e d5 ef bf
       -1.6951070776707178 -0.994796065377188
0006a0 49 d4 eb ee 07 6c df bf 94 86 4e 51 c3 81 dd 3f
       -0.49096868831776824 0.46104510250197817
0006b0 a0 3e 9d 1b d6 5d f0 bf 29 42 c5 51 32 f4 d3 3f
       -1.0229092672997595 0.31177957520870564
0006c0 51 05 32 f2 43 61 ca 3f 95 fd 19 3d 38 11 c8 bf
       0.20609330488154368 -0.1880255030009549
0006d0 01 48 72 7c 64 0b b7 bf 08 e7 d3 b8 43 98 f7 3f
       -0.09001758611910306 1.4746739597162009
0006e0 7d f0 e4 81 6c dc fb 3f 0d 53 90 8b b9 82 d0 3f
       1.7413144182201272 0.25797880772852083
0006f0 ad 1e 99 cd 38 b3 f7 3f ce 06 67 ec 95 32 c6 3f
       1.4812553435494167 0.17341875117386113
000700 fc c7 a4 ff cc e4 d9 3f 18 c0 6e 7d 88 ca 67 3f
       0.4045898911018637 0.002904192525839743
000710 09 c6 ff dc f3 57 ab 3f c9 ba 8f d2 03 4b ff 3f
       0.05340540001624212 1.9558141923004533
000720 53 95 a4 d9 7c 22 ec 3f d7 8e a1 4e 43 9a db bf
       0.8792099238241157 -0.4312904613382051
000730 09 9a 02 dc 0f 5f dc 3f e1 65 a0 2c 41 e3 c6 3f
       0.44330212102286787 0.17881025961905464
000740 6c d7 f8 4b 20 0c e3 3f 64 01 30 14 44 f8 e0 3f
       0.5952302440480088 0.5303059000289463
000750 8c a8 d7 dc 37 42 02 40 1b bc 9c 5b de 83 e3 bf
       2.282333112079021 -0.6098472394277253
000760 f1 af 85 db fe 7e f9 bf 7e cf 08 cf de 70 f3 3f
       -1.5935047698103484 1.2150562369615439
000770 12 7c a0 a0 f7 b5 e7 3f e2 a0 a0 48 96 a0 e7 bf
       0.7409628045314796 -0.738352910852907
000780 3f 59 ae a9 51 61 da bf a4 47 62 67 08 8f f9 bf
       -0.4121898800889489 -1.597420123904592
000790 d9 38 c9 5d 0a 6e 02 c0 0e 0b f7 25 bb b1 b0 bf
       -2.3037307097466564 -0.06521196057205378
0007a0 20 60 81 f2 77 30 d9 bf 56 2e bd a4 30 29 d1 bf
       -0.3935832851616414 -0.2681390389231856
0007b0 6a 97 37 3f 2f 06 ec 3f 86 89 5e d1 eb 9e f0 bf
       0.8757549509725611 -1.0387991121757252
0007c0 ab 55 d6 98 b6 16 fa bf b9 18 b9 dc 9e 5d f5 3f
       -1.6305452318386908 1.3353565809243675
0007d0 d2 64 cc 36 f7 07 df bf 73 30 ff 5b 9d 48 ea bf
       -0.48486118651778753 -0.8213640972912927
0007e0 82 bd 0f 8c b5 0c ec 3f fd 8f f5 bc 1c 39 bb bf
       0.8765514121604812 -0.10634021390211497
0007f0 24 55 c8 be 34 09 e5 3f 24 e7 75 06 e9 2b f0 3f
       0.6573737837049163 1.0107202770581774

wkj f8 [15, 20]
000000 ff 47 4e 37 14 cc 11 c0 7a 38 5b f3 dd a7 f7 3f
       -4.449295868065746 1.478483152971903
000010 72 fc c9 3f 5c f2 02 c0 6b 80 6e b6 3e e2 12 c0
       -2.368340013839366 -4.720942354673848
000020 14 3b 6d d4 42 54 c1 bf 32 1c b0 1a 00 5a f8 3f
       -0.13538394329449288 1.5219727556702876
000030 e5 cc 96 6c 36 d3 02 c0 fc 87 e0 79 8a e5 ff 3f
       -2.3531311496277447 1.993540264208149
000040 61 0b c6 46 7b a4 13 40 19 98 eb 5a a2 f7 f4 3f
       4.91062651237266 1.3104575683187305
000050 f7 1f e9 21 4a 34 e5 3f 56 a9 a2 8e 91 cd 00 c0
       0.6626330053632036 -2.1003752845182744
000060 d2 ed b8 47 64 2e 03 c0 3c 56 68 6c 9e fb ec bf
       -2.3976522067366455 -0.9057151906333227
000070 32 28 2d 85 bb b8 f3 bf 6c 34 be 2e bc 9c d7 bf
       -1.2326007082178987 -0.36894135060067046
000080 61 4d 67 ed a5 cb 09 c0 e5 21 bc c2 9f c2 07 c0
       -3.224437575068507 -2.9700312818206265
000090 27 15 d0 1e 2c 11 f4 3f 5d 72 a1 a0 4f 64 11 c0
       1.2541924670816316 -4.347960004667212
0000a0 00 fa ce 16 40 16 13 c0 81 14 08 c9 70 6b 02 40
       -4.771728855498168 2.3024612145987366
0000b0 c4 12 18 b8 14 a3 fa bf 2a be 75 8d 15 6f e7 bf
       -1.6648146811650557 -0.7323100817574801
0000c0 25 06 ab b7 38 3b ff bf 89 7a 19 63 46 9c 07 c0
       -1.9519583868535701 -2.9513061277533024
0000d0 93 d6 b8 91 85 a8 c5 bf c6 5f 06 69 8c 95 07 c0
       -0.1692053758176156 -2.9480217175550676
0000e0 dc 71 a1 62 8e a5 b2 3f ff f8 00 cb 00 21 fa bf
       0.07283868701910684 -1.6330573968730844
0000f0 1f 9e 11 c4 aa 4d ec bf 3f 78 37 7a 78 f9 09 c0
       -0.8844808415860291 -3.2468118236711514
000100 74 d5 c1 68 49 61 04 c0 68 c7 da b4 83 f0 f6 3f
       -2.5475032982018835 1.4337193550713554
000110 2d dc 5e c7 8f 57 0d 40 d0 57 e9 61 29 ba 06 c0
       3.667754705030822 -2.840899243291439
000120 d9 1b ac 13 68 83 07 c0 59 33 80 08 dd d5 f2 3f
       -2.9391633545778686 1.177212746816812
000130 24 1b da 80 70 47 fb bf 3c b3 72 8e 8f 1c 01 40
       -1.704941275909456 2.13894568717515
000140 db a4 3a 4c fd 1d 0e c0 c8 f2 ba c6 07 ad ec bf
       -3.764643283404991 -0.8961218720865753
000150 c9 17 73 8b 35 54 03 c0 92 65 b6 36 1d 08 0f c0
       -2.4161177534578866 -3.878961970750148
000160 ac 4b cf 96 4d 67 ec bf 2f b1 f4 91 0b ac fb bf
       -0.887610239553728 -1.7295032216453128
000170 83 a0 7e 40 be 57 e2 bf cc 7e 3f 55 ea 28 f0 3f
       -0.5732108363781808 1.0099891023636927
000180 63 4c 0d cc 2a b1 14 c0 99 60 86 d6 4e 45 cb bf
       -5.173014820396108 -0.2130526111111564
000190 a1 a8 f1 55 ee 90 db 3f 84 e3 95 42 ed 10 d7 bf
       0.43072088616339427 -0.36040812971582903
0001a0 f8 96 b1 70 c4 9c 01 40 c6 61 d7 c1 5e ac e5 bf
       2.2015465549655993 -0.6772912775004947
0001b0 21 9a d6 33 04 8e 06 c0 63 6a 4b 9e a9 b2 10 40
       -2.819343953119884 4.174475167611123
0001c0 63 c1 19 c4 95 33 06 c0 44 68 54 86 0c 26 0e 40
       -2.7751879997596673 3.768578576517969
0001d0 cf bf 4e 16 f2 8d 02 40 92 e5 70 b4 71 1a 09 c0
       2.3193094008238186 -3.1379121872857434
0001e0 7b 81 a6 97 18 b9 08 c0 b0 1a 59 5c 6d 4b 0e c0
       -3.0903789375008137 -3.7868296827976664
0001f0 f8 f6 32 58 62 d7 fb bf 21 82 15 79 51 4c 00 c0
       -1.7400840230251884 -2.0372647723854844
000200 5f 11 00 d3 d0 a3 ee bf fa 32 c4 03 e5 91 10 c0
       -0.9574970360850265 -4.142475184297604
000210 1b a9 8d d9 15 98 f9 bf 5f fc d2 73 20 b8 1a c0
       -1.5996302126100719 -6.679811296227029
000220 de 5f 99 ec aa 32 e5 bf d7 c2 d1 96 b8 9f dc 3f
       -0.662435018642096 0.4472485993237973
000230 73 60 88 fb 64 cc c0 bf 56 93 08 50 ef 83 09 40
       -0.13123762399550606 3.1894212963692707
000240 50 dc f5 e4 4f ce d6 3f 66 bc dc 56 b4 2c 01 40
       0.3563422904912317 2.1468283449280987
000250 e2 fe d2 90 2b f4 f9 bf 51 f2 ff 5e 64 af 06 40
       -1.622111860007799 2.8356406614168823
000260 1d 5c b3 54 32 3c 03 40 88 eb c2 55 a2 f9 ed bf
       2.4043928735004685 -0.9367229151751966
000270 95 2d a0 3e 3f 1b ec 3f 49 57 73 63 26 02 05 40
       0.8783260558279148 2.6260497827123896
000280 11 d4 52 98 6f 2e 05 c0 39 39 45 64 14 c0 11 c0
       -2.647673788097116 -4.437577788090771
000290 f7 69 55 e7 1e 25 02 c0 89 65 cc f3 b2 0e f9 3f
       -2.2681253502789747 1.5660886309982252
0002a0 fc 3a 16 ff 0b e5 c0 3f 9d 6b 9e 4d d3 53 11 40
       0.1319899554768752 4.331860745233738
0002b0 61 12 c2 83 6a 98 00 c0 51 de 78 2f b3 8b 0c c0
       -2.074421910629369 -3.5682128628502956
0002c0 76 45 47 49 bc 68 ff 3f 08 36 95 3f c4 f9 0d c0
       1.9630701887548105 -3.7469563453112222
0002d0 f4 2a 07 ae 6a 9e 01 c0 3b d9 04 a4 50 ab 04 c0
       -2.202351913064712 -2.5836499036769545
0002e0 0f 14 29 76 4e 2c f3 3f 30 ec 11 f0 1f 17 fd bf
       1.1983170142787036 -1.8181456926092885
0002f0 da 62 b4 22 6a 12 aa 3f 9e bf 2a 4e 19 d2 f2 3f
       0.05092174218788666 1.176293664302626
000300 db 40 80 8e 5d ed f5 bf 26 46 99 e3 0f 87 fb 3f
       -1.37045055069398 1.7204741373610744
000310 5d 1e c1 b7 5d 34 e9 bf 73 cb 84 bc 6e 26 f0 3f
       -0.787642344374898 1.0093829502117984
000320 45 13 5d 39 68 8d fe bf 2c 72 3a f5 b3 a5 06 40
       -1.9095232239498767 2.8309096487485217
000330 32 ec e1 b7 96 9e f2 bf 47 2c 03 70 f6 ef 00 40
       -1.1637179549131926 2.117169261071044
000340 2d 30 1d 9f e1 4c f4 3f 76 b8 7a b3 62 1a fb bf
       1.2687698569670929 -1.6939417849457903
000350 e1 b9 7f 03 e3 57 f9 bf 21 9d f1 f4 92 90 c4 bf
       -1.5839567314793543 -0.16066204986712143
000360 5d 85 8f 2a 3a 4e 13 c0 2c 77 c3 a2 77 b1 07 40
       -4.826393761644195 2.9616539684201566
000370 ff 97 e5 78 92 12 08 c0 59 03 0e 40 ad 1e f3 bf
       -3.0090684361521194 -1.1949894430292345
000380 4b 3f 9c 92 3a 61 f4 bf 76 b9 5e 78 c0 05 14 c0
       -1.2737374999014317 -5.005617028028032
000390 df 07 de b8 05 80 f0 3f b3 cb ab f0 d9 40 0a c0
       1.0312554570559695 -3.2816656877925765
0003a0 57 f2 b4 c0 c0 77 02 c0 4d b3 35 22 95 ed fd bf
       -2.308473115465215 -1.8705035530394583
0003b0 7a c7 7d 2b 88 de 06 40 62 a3 99 ba 13 9c 0f c0
       2.858658160949685 -3.951209504903475
0003c0 a0 c8 72 5e b2 80 03 40 e9 ed ea 4b 4b 79 d9 bf
       2.437840211751862 -0.39802820600354366
0003d0 a5 6e 66 98 05 b3 f7 bf d5 85 21 60 a6 c0 00 c0
       -1.4812065079812922 -2.0940673361044255
0003e0 b9 1a c4 cf 7d 90 15 c0 bc 77 82 b6 36 ec f2 bf
       -5.391104933113348 -1.1826693658144753
0003f0 9f 64 f0 f4 2d 01 f1 bf 4b d4 84 e5 12 11 e4 3f
       -1.0627879684382504 0.627084205893547
000400 53 c4 6a 46 9c 1f fb 3f 42 89 f2 57 ce 51 0d c0
       1.695217394892343 -3.6649443503276027
000410 bb f6 56 97 71 77 03 c0 e6 6f 52 15 21 14 f9 bf
       -2.4333221267141574 -1.5674143631831554
000420 1c ed 77 53 a1 03 d3 bf 43 77 57 0d 9d 30 e7 3f
       -0.29709656859604805 0.7246842632846228
000430 fb ff a1 b0 df 78 fe bf ba 0d fd 4f 93 fe ff bf
       -1.9045102023810603 -1.9996522068548601
000440 2e 2b 3e 07 04 6f 0d 40 25 09 cd 78 5e 20 04 c0
       3.679206902107942 -2.515805190808481
000450 56 69 87 d6 0e 68 0b c0 ae a1 c9 84 73 40 ee 3f
       -3.4258095512460995 0.9453675836094158
000460 b5 53 b4 98 e1 30 f3 3f f3 c6 6b fe b2 50 f6 3f
       1.1994338955894197 1.39470195182042
000470 8a 5e 0a a3 73 72 f5 bf 33 7e 30 9c d0 21 02 c0
       -1.3404423111695984 -2.266511173467529
000480 0b a7 37 01 d6 68 09 c0 1c 4f 13 2b 29 fe ea bf
       -3.1761894316777037 -0.8435254899327194
000490 b9 13 d4 48 bb bd fa bf 8c f4 d4 49 3e 8b ea bf
       -1.6713211865291966 -0.8294974748638579
0004a0 df b5 88 c8 a8 48 fb bf 1f 5c 34 86 a2 d1 02 c0
       -1.7052390893326146 -2.3523607716301878
0004b0 ca 89 c5 c9 b9 f8 06 40 e5 73 7f c5 9f 52 0e 40
       2.8714481128128897 3.790343802406357
0004c0 eb ab fa 16 c8 c7 d7 3f 05 67 65 3b ed 15 f3 3f
       0.37156870121060476 1.1928531952057153
0004d0 63 95 13 83 50 e5 f4 3f 35 07 e5 50 76 0e 07 c0
       1.3059849853683196 -2.882061607350716
0004e0 83 2a 33 1e b2 95 0a c0 df 14 79 ed 03 ae b2 bf
       -3.323093639313187 -0.07296776340179488
0004f0 f8 ea bc c3 dc 7f f5 bf c9 4b 94 ab 63 9a 0a c0
       -1.343716396905334 -3.325385418379913
000500 94 25 94 37 d9 cb 02 40 5c 05 45 fa 36 f3 d6 bf
       2.349535402496892 -0.35859465065376184
000510 9a ce 7b 01 69 ca ce bf c6 54 5d 05 d0 e4 f4 3f
       -0.2405520684475178 1.305862446742411
000520 e8 51 ac 63 23 5b 00 c0 01 a1 0e 5b c7 3b fb bf
       -2.044501093574798 -1.7020944172782608
000530 ad f1 d2 e0 6d f3 0b c0 d9 8d 6c d5 52 db 09 c0
       -3.49386191982031 -3.2320915864708977
000540 8b 40 fa 20 94 15 f3 3f 0c f2 64 94 ea 81 03 40
       1.1927682197747653 2.438435706453907
000550 18 19 55 12 d4 81 00 c0 51 f6 18 1d 83 27 9e bf
       -2.0633927757472854 -0.029447601939173677
000560 22 f6 c7 f2 64 30 f2 3f 3b 0d d4 bf 5a 27 0f c0
       1.136815021861715 -3.8942160593593633
000570 03 81 c5 78 7b 0d c5 3f 09 40 e0 55 21 17 e0 3f
       0.16447394749685182 0.5028235127701929
000580 e5 d9 84 c4 27 f9 e1 3f d0 ef 41 0f 9e 5d fa 3f
       0.5616644705067385 1.647855815505853
000590 54 81 10 06 de 83 02 c0 1f 56 82 7c 7d 4d fe bf
       -2.314388320330332 -1.8939185012471922
0005a0 ec 51 07 91 53 19 f1 3f d9 d0 8c c5 8b fb 09 c0
       1.0686832108668751 -3.247825187072618
0005b0 3d 33 4f c9 2a 62 f3 bf c2 94 03 5f 6f 1d f8 bf
       -1.211466585507153 -1.507186289928811
0005c0 2e 1a 0f fa 02 67 b5 bf 63 8b ec 85 5b 91 f1 bf
       -0.0836030827041234 -1.0979876738935779
0005d0 80 a5 bd de d7 3c 19 c0 17 70 1e 07 10 bc b0 3f
       -6.309417229008773 0.06536960767556398
0005e0 f7 15 5b 6b e0 e6 e4 bf b2 88 64 21 e4 a0 bc 3f
       -0.6531831833642049 0.11183000388385514
0005f0 8e 78 74 99 62 13 00 40 85 62 be a1 72 68 f7 bf
       2.0094654072445968 -1.4629999464142724
000600 e5 0b a0 f8 19 0d e1 bf 88 82 70 a0 0d e0 d8 3f
       -0.5328492980919434 0.38867512386244885
000610 5c 38 95 82 b8 b6 08 40 cd d1 79 f5 be 6a fe bf
       3.089219112566793 -1.9010610188389478
000620 fb 41 31 82 3e 63 f1 3f ae 09 23 2d ba bd f9 bf
       1.0867295346871504 -1.6088201296957823
000630 96 fe c1 cc 3c b5 fa 3f 19 19 21 c6 1d 9a f4 3f
       1.6692474363661964 1.2876260508942947
000640 76 bb 77 cd 81 a7 f9 bf 93 92 80 0a 1e 9b 10 c0
       -1.6033952737886614 -4.151481784913488
000650 e5 0c 9a 0a 5d ba e7 bf 8f 50 99 24 08 36 f1 3f
       -0.7414994437280283 1.0756913594860043
000660 e0 04 bb bc fc c4 11 c0 b1 a8 1d 67 ee 8b f4 bf
       -4.442370366015183 -1.2841629054988
000670 d7 a7 96 62 90 0b d5 3f 9e 90 15 16 b0 16 fd 3f
       0.3288308108118349 1.8180390226998848
000680 b2 cf b6 43 7d c6 e9 bf cb 39 51 16 ea 07 0f 40
       -0.8054796526471277 3.878864454606832
000690 78 5a d2 74 17 dd f0 bf f2 32 62 fa 68 8e eb bf
       -1.0539774478289967 -0.8611340418152322
0006a0 96 36 04 eb 4a 3c ba 3f aa 5b a9 7c 43 5e fd 3f
       0.10248249280649654 1.8355135793296804
0006b0 71 bb 41 44 88 a8 03 c0 6c c4 cc d4 68 1f fa bf
       -2.4572911579666017 -1.6326683342452055
0006c0 b4 9f a4 da 33 80 08 c0 11 92 eb 1c 3e 3e e5 bf
       -3.062598903798028 -0.6638479771468743
0006d0 f3 94 37 31 01 6b 10 c0 d1 6a be e4 e0 5e f3 bf
       -4.104496735589453 -1.2106636939339988
0006e0 c3 81 c3 7d 18 cf 04 c0 e1 0f a4 65 c9 23 00 40
       -2.6011209321297613 2.017473978108669
0006f0 38 7b 89 18 d5 fc 06 40 db 15 c5 39 65 4a 08 c0
       2.8734533230739565 -3.0363258851309474
000700 a9 ae 6e 06 f3 97 f1 3f 6f 11 08 04 2c 8b 04 c0
       1.0995970011962675 -2.5679550471269788
000710 90 88 43 76 35 9c de bf 48 cf b0 9e ff 4f 03 c0
       -0.47828423070144144 -2.414061774988941
000720 56 7c 96 6e 9f c9 06 c0 55 76 48 19 42 d0 07 c0
       -2.8484486236261928 -2.976688573383209
000730 30 89 24 84 73 5f f1 bf ff cf 3d fb 22 71 08 c0
       -1.0858035241913733 -3.0552425029982255
000740 32 ab 08 e9 8d 99 fa bf 39 cc ab 51 e7 0b ff bf
       -1.6624888518223995 -1.9404061498905902
000750 43 8a c8 77 1a c6 07 c0 a1 52 d7 74 cd 4e 01 c0
       -2.971730171020029 -2.163477814503793
000760 9a 90 54 42 b1 54 f1 3f 12 97 01 cc 14 36 08 c0
       1.0831768599537441 -3.0264068544373766
000770 46 b9 49 5b 42 31 f0 3f 15 61 d3 c2 62 48 0f 40
       1.0120261732041214 3.9103446217305966
000780 f9 4e 20 b6 ae fc d6 3f 7a 69 94 6f 59 97 f7 bf
       0.35917251382600984 -1.4744505270560624
000790 9c 70 c0 ce ef fb 17 40 2a a8 78 3d 3c fd eb bf
       5.996031980987166 -0.8746625137912407
0007a0 4b 78 bd 1e e7 90 c5 bf 52 b9 8b e6 1e fa fb 3f
       -0.16848458291036858 1.7485646253295113
0007b0 fa d2 e4 37 e4 5d ff bf 2e 3d b2 65 dd b3 e7 bf
       -1.9604227240899363 -0.7407061563734822
0007c0 bf d2 66 92 5a 5b f2 3f 06 58 74 35 44 f1 fa bf
       1.147303172952135 -1.6839029396119272
0007d0 d0 0d 1d 8e 47 e1 01 c0 1c f9 a3 a3 ab f9 13 40
       -2.234999761830956 4.993818814166186
0007e0 8b a1 21 3f c9 60 fa bf ec 33 68 e9 ca 6c ff bf
       -1.6486294237202823 -1.9640606992209042
0007f0 0b b1 4f cc 8e f6 03 c0 30 26 57 f5 a0 b9 df 3f
       -2.495389553243631 0.49570487936998386

bias_j f8 [20, 1]
000000 55 7b b2 c5 4a ae f7 3f dd a8 67 52 6a 9e e6 bf
       1.4800517771288544 -0.7068378076048948
000010 25 ef e2 61 17 f5 ec 3f f5 5d b9 26 0b 9d 97 3f
       0.9049183761448815 0.023060011137514953
000020 45 d0 f1 b1 60 cc f7 3f 30 5b 12 a6 c1 43 f3 3f
       1.4873969031296081 1.2040420996833738
000030 80 1b 48 b2 3e 64 df bf 3b b5 9c 19 fe 02 df bf
       -0.49049346361464785 -0.4845576524847563
000040 f4 1d c0 fd 58 81 ae bf 39 7b c5 62 2b 02 c0 bf
       -0.05958059403934249 -0.1250662071497233
000050 e6 63 3e 7a 14 a3 c9 3f b1 60 e8 99 9b 26 fe 3f
       0.20028930634433023 1.8844257366199992
000060 b1 b3 6b 81 ca c3 f1 3f 9e 44 85 dd 9d ed d0 bf
       1.1103005462166318 -0.2645029700552842
000070 d3 84 9a d2 3c a7 d5 3f da 5c c1 62 ba 56 ff 3f
       0.33833237234837304 1.9586738450650985
000080 39 f7 1f 6e d8 fb f5 3f d1 4a 3f 7b b8 72 f3 3f
       1.373985700774439 1.215507966455949
000090 d1 6d 1d 4a ec 16 f9 3f 98 73 11 6f bf 02 e0 3f
       1.5680964369884018 0.500335423402805

bias_k f8 [15, 1]
000000 1e b8 ee 5c 34 a8 f6 bf 65 1d 7a e2 3f b6 ff bf
       -1.4160655622649823 -1.9819945189245456
000010 e2 c0 9a 3e 1e b7 01 c0 93 cd 18 3e 7e ca fa bf
       -2.2144131556488995 -1.6744368005427972
000020 b3 46 49 79 6d bd 00 c0 26 cf 93 63 04 86 f3 bf
       -2.092493960903846 -1.2202190294019117
000030 37 d3 02 d8 81 60 fe bf e3 77 cf 80 fe 45 f7 bf
       -1.8985613286906309 -1.4545884162575866
000040 15 2a 87 a7 3c ed f2 bf 66 5e 68 84 50 99 fc bf
       -1.1829191726743649 -1.787430302827397
000050 3f 40 49 15 3a d8 e2 bf 49 66 c8 70 87 89 f0 bf
       -0.5888948837036948 -1.0335764318064256
000060 b3 70 6e 27 6c 75 fe bf cd 68 65 bf 3a 0d e4 bf
       -1.9036675968446104 -0.6266149271207496
000070 bd 23 44 48 81 61 f2 bf
       -1.1488049338242796
